models/transe_model/trained_model.pkl (torch, 598805 bytes, 2 tensors)

weight f4 [2943, 50]
0	0xbde82bea	-0.11336501
1	0xbcaaf497	-0.020868583
2	0xbd99d868	-0.07511979
3	0xbcddd0ba	-0.027077068
4	0xbe397f8a	-0.18115059
5	0x3e55ec22	0.20890859
6	0x3dc4df0d	0.09612856
7	0xbe4e24c2	-0.2013121
8	0x3e0ec991	0.13944079
9	0x3e65b913	0.22433881
10	0xbdec5275	-0.11539165
11	0x3e806f2e	0.25084823
12	0x3e00bb0e	0.12571356
13	0xbd3a23f0	-0.04544443
14	0x3c9aa2cd	0.018876458
15	0x3df55f51	0.11981071
16	0xbda92a1c	-0.08259985
17	0xbe0354fe	-0.1282539
18	0x3e14c6b3	0.14528923
19	0x3dab2047	0.08355766
20	0x3ae0eb88	0.0017160038
21	0xbbae44a2	-0.0053182403
22	0x3e38cfd0	0.18048024
23	0xbe369757	-0.17831169
24	0x3c4cc088	0.012497075
25	0x3d8c01f7	0.06836312
26	0x3c38caa0	0.011278778
27	0x3e45d832	0.19320753
28	0x3e6b34cc	0.22969359
29	0x3daca28d	0.084294416
30	0x3d432f51	0.047652546
31	0x3dfcf64c	0.12351665
32	0xbe52f97b	-0.20602982
33	0xbdb588cb	-0.08863982
34	0x3dfa965b	0.12235709
35	0xbe8acb26	-0.27108115
36	0x3e5a3c03	0.21311955
37	0x3e44452b	0.1916701
38	0x3c3a8c83	0.01138604
39	0x3a879401	0.0010343791
40	0xbdc40d15	-0.09572808
41	0x3dcb41c2	0.09924652
42	0xbdb6a17f	-0.08917522
43	0x3e67a769	0.22622456
44	0xbe5d1554	-0.21590167
45	0xbdd0b8dd	-0.1019151
46	0x3e4971ea	0.19672361
47	0x3e40fbc2	0.18846038
48	0xbcdcbbf0	-0.026945084
49	0x3dc1aba6	0.094565675
50	0xbe4f0f0b	-0.20220582
51	0x3d7ef2b2	0.06224317
52	0x3db66b95	0.089072384
53	0x3e45a568	0.19301379
54	0x3e044d7a	0.1292018
55	0x3cf545a6	0.029940438
56	0xbdbf14ef	-0.09330165
57	0x3e4e62e0	0.20154905
58	0x3de09878	0.10966581
59	0x3db16a52	0.08662857
60	0x3d1ee858	0.0387958
61	0x3e3fe2e3	0.18738894
62	0x3d9dd2c4	0.07706216
63	0xbe5a8262	-0.213388
64	0x3dcef3ef	0.101051204
65	0xbce93eaa	-0.028472263
66	0xbe2e73a6	-0.17036304
67	0x3e179046	0.1480113
68	0xbd49b65c	-0.049246177
69	0xbdfc0fa0	-0.12307668
70	0xbe4600c3	-0.19336228
71	0x3ce7cfb9	0.028297292
72	0x3e4cb585	0.19991119
73	0xbdfb5f7f	-0.12274074
74	0x3d106ca2	0.03525985
75	0xbe0a117a	-0.1348323
76	0x3e59a094	0.21252662
77	0xbd886a9d	-0.0666096
78	0x3cddc834	0.027073003
79	0xbc6c8e6e	-0.014438255
80	0xbe09b42c	-0.13447636
81	0x3d90b4f7	0.07065766
82	0x3e437a29	0.19089569
83	0xbe6a9ca7	-0.2291132
84	0x3e4d3dbe	0.20043084
85	0xbe3bc1c3	-0.18335633
86	0x3d22221b	0.039583307
87	0x3e258fd3	0.16168146
88	0xbdabbdd1	-0.08385814
89	0x3e5a8d3b	0.21342938
90	0x3e33308e	0.17498991
91	0x3b202b22	0.0024439772
92	0xbd4e3848	-0.050346643
93	0x3e6666b9	0.22500123
94	0xbe13bf0a	-0.14428344
95	0xbd8cda14	-0.068775326
96	0x3e6c6189	0.23084082
97	0x3e14fe1d	0.14550062
98	0xbe15cee2	-0.14629701
99	0xbe162a25	-0.14664514
100	0xbc83e3da	-0.016099859
101	0xbbce4abb	-0.0062955297
102	0x3cc11a39	0.023572074
103	0x3bcffbab	0.00634714
104	0xbdfab2eb	-0.12241157
105	0xbdaf4236	-0.085575506
106	0x3e1a1750	0.15047956
107	0x3cadb580	0.02120471
108	0xbe1e4823	-0.15457205
109	0xbc9d9969	-0.01923819
110	0x3e002946	0.12515745
111	0x3da8a870	0.08235252
112	0xbddaf894	-0.10691944
113	0x3d6895bf	0.056783434
114	0x3ca91c5e	0.02064341
115	0x3e37219b	0.17883913
116	0xbe620295	-0.22071297
117	0x3d3314b6	0.043720923
118	0xbe6f5fe9	-0.2337643
119	0xbd8eee84	-0.06979087
120	0xbda50b13	-0.08058753
121	0xbe5d3697	-0.21602856
122	0xbe00965e	-0.1255736
123	0xbd29bb28	-0.04143825
124	0x3c0c4ac0	0.008562744
125	0xbdeb8ea7	-0.11501818
126	0xbc41b8f3	-0.0118238805
127	0xbdde7eda	-0.10864039
128	0xbe702ea3	-0.2345529
129	0x3dce3975	0.10069553
130	0x3dc67ed1	0.09692157
131	0xbe2ca356	-0.16859183
132	0xbe49289c	-0.19644397
133	0x3e6f8bc7	0.23393165
134	0x3ca41a57	0.020032091
135	0xbd99829d	-0.07495616
136	0xbe02e087	-0.12780963
137	0xbd9c0c41	-0.07619525
138	0xbe3c1db0	-0.183707
139	0xbe90358c	-0.28165853
140	0xbea623b3	-0.3244911
141	0xbe604d6e	-0.21904537
142	0xbe69982b	-0.22811954
143	0xbddd1b6f	-0.10796248
144	0xbd6ba008	-0.057525665
145	0xbdb46cd2	-0.08809818
146	0x3e514769	0.20437397
147	0xbdb3417d	-0.08752725
148	0x3cb2b67f	0.021815537
149	0x3e48b762	0.19601205
150	0x3d9fd191	0.078036435
151	0x3e4e7b47	0.20164214
152	0xbd1e3876	-0.038628064
153	0x3e844167	0.25831148
154	0x3e4ada3d	0.19809814
155	0xbc7bb000	-0.015361786
156	0x3e090bbb	0.13383381
157	0xbe039792	-0.12850788
158	0x3d0e779f	0.03478205
159	0xbcf9788f	-0.030452995
160	0x3db830bf	0.089936726
161	0x3dcaf073	0.09909143
162	0x3d1588c1	0.03650737
163	0xbdb6041e	-0.08887504
164	0x3e656849	0.22403063
165	0xbddfaa9f	-0.10921215
166	0x3e808095	0.250981
167	0xbd8a68cb	-0.06758269
168	0xbd84db98	-0.06487197
169	0xbdb452b4	-0.08804837
170	0xbdc7cbc8	-0.09755665
171	0xbd98e87f	-0.0746622
172	0x3d9f13e8	0.07767469
173	0x3e69b504	0.22822958
174	0x3cb09f4a	0.02156033
175	0xbd3969a2	-0.045266755
176	0xbca9238a	-0.02064683
177	0x3d270685	0.040777702
178	0xbdbaf877	-0.09129422
179	0xbd6774e7	-0.05650797
180	0x3df55ccf	0.119805925
181	0x3caac528	0.020845965
182	0xbd37560e	-0.044759803
183	0x3e4b5d1b	0.19859736
184	0xbe3215ce	-0.1739113
185	0xbe57c17f	-0.21069907
186	0xbe6a6b8b	-0.22892587
187	0x3e85f96e	0.26166862
188	0xbe1f9ff2	-0.15588358
189	0x3e021292	0.12702397
190	0xbe726bf3	-0.23673992
191	0x3d6f9f30	0.058501422
192	0xbc4b2b0d	-0.012400401
193	0xbe349d39	-0.176381
194	0x3dd489f5	0.10377876
195	0xbcb4d37c	-0.0220735
196	0x3e434c43	0.1907206
197	0x3e5ea97a	0.21744338
198	0xbe3055a4	-0.1722017
199	0xbe554c4c	-0.20829886
200	0xbe4f70b5	-0.20257838
201	0xbd92a89b	-0.07161065
202	0x3d221656	0.039572082
203	0xbd596f6b	-0.053084772
204	0xbe544373	-0.20728855
205	0x3d68984a	0.05678586
206	0x3dc4e3ec	0.09613785
207	0xbe3e1153	-0.18561296
208	0xbdbb3353	-0.09140649
209	0x3e0aec07	0.135666
210	0x3d8a77a0	0.06761098
211	0x3e580156	0.2109426
212	0x3e0b1403	0.13581853
213	0x3dbda4ed	0.09259973
214	0x3e435446	0.19075117
215	0x3e66b8d1	0.2253144
216	0xbcf8b458	-0.030359432
217	0xbe2023c9	-0.15638651
218	0x3c82c6bd	0.015963906
219	0xbe1aa4d6	-0.15101942
220	0xbe61cd7c	-0.22051042
221	0xbe6a4a65	-0.22879942
222	0x3e28d9f8	0.16489398
223	0x3e701470	0.23445296
224	0x3cc97ab2	0.024594638
225	0x3e287379	0.164503
226	0xbc17fe55	-0.009276946
227	0xbcbb2149	-0.02284302
228	0x3db7f6ab	0.08982595
229	0x3e49f61b	0.19722788
230	0x3e3a2b4f	0.18180583
231	0x3e7124e0	0.23549223
232	0xbb5b8f4d	-0.0033502162
233	0xba587afb	-0.00082580716
234	0xbcc39cf8	-0.02387856
235	0x3de3abb7	0.111167364
236	0xbe8bd293	-0.27309093
237	0x3e16871e	0.1469998
238	0xbe535995	-0.20639642
239	0x3d120239	0.03564665
240	0xbe33ccfc	-0.17558664
241	0xbd85ae87	-0.06527429
242	0xbc8c86b3	-0.017154073
243	0xbdb8e48d	-0.090279676
244	0x3e73c22c	0.2380454
245	0x3d29b78f	0.04143482
246	0xba0584e3	-0.0005093349
247	0xbd2c5d69	-0.04208127
248	0x3c5eb21c	0.013592269
249	0x3e06eed9	0.1317705
250	0x3dd51ba6	0.10405664
251	0x3dc91e00	0.09820175
252	0x3c2aabb2	0.010416912
253	0x3d1662f6	0.03671547
254	0xbe02b5a9	-0.1276461
255	0x3d4e08fd	0.05030154

weight f4 [24, 50]
0	0xbd068bed	-0.032848287
1	0x3cc13c7e	0.023588415
2	0x3d01721d	0.031602968
3	0xbd11fcd5	-0.03564151
4	0x3cb569aa	0.022145111
5	0x3cdd4079	0.027008282
6	0xbc8382bc	-0.01605355
7	0x3dcec566	0.100962445
8	0xbd3450bb	-0.044022303
9	0x3d7d40d1	0.061829392
10	0x3d05965e	0.032614104
11	0x3e5783b9	0.21046342
12	0x3e0ee14a	0.13953128
13	0xbcb87fdf	-0.022521911
14	0xbd11e549	-0.035619054
15	0xbc7758ac	-0.015096825
16	0xbd19e87a	-0.037575223
17	0xbd00f9dd	-0.03148829
18	0xbded43c7	-0.11585193
19	0xbb9eee2c	-0.0048501696
20	0xbc0133ce	-0.007885886
21	0xbd9aead2	-0.0756432
22	0xbce18949	-0.027531283
23	0xbcf391d5	-0.029732624
24	0x3b9cb1f4	0.004781956
25	0xbd862c2c	-0.06551394
26	0x3c2fa3a3	0.010720166
27	0xbd55f067	-0.05223122
28	0xbd3eacf3	-0.046551656
29	0x3d1ebafb	0.038752537
30	0xbd65ef09	-0.056136165
31	0x3cbf4875	0.02334998
32	0xbdb40250	-0.087895036
33	0xbc435070	-0.011921033
34	0xbe05650b	-0.13026826
35	0xbdafff4e	-0.085936174
36	0xbced99b2	-0.029003952
37	0x3d36863c	0.04456161
38	0x3cc1b290	0.023644716
39	0x3b63e649	0.0034774712
40	0xbde99e19	-0.11407108
41	0x3cb64509	0.022249715
42	0xbcbb07dc	-0.022830896
43	0xbd86e6ad	-0.06586967
44	0x3cfa2562	0.030535404
45	0x3cdb989d	0.02680617
46	0xbbdb2add	-0.0066884593
47	0x3db64645	0.089001216
48	0xbc1e6ea5	-0.009669934
49	0xbda81d8e	-0.08208762
50	0xbd72027c	-0.0590844
51	0xbca4495a	-0.020054508
52	0xbdbd93f1	-0.09256733
53	0x3d532edb	0.051558357
54	0xbcc9d1de	-0.024636205
55	0xbd995d7b	-0.07488533
56	0x3c4f8850	0.012666777
57	0xbde6c53c	-0.11268088
58	0x3c4ed41e	0.012623815
59	0x3d877f9c	0.066161364
60	0xbc779bd1	-0.015112833
61	0x3e23dde9	0.16002621
62	0xbe136ceb	-0.14397018
63	0x3bfb6b53	0.007672706
64	0x3d0ca74e	0.03433924
65	0xbc8b0793	-0.016971385
66	0x3d259f4b	0.040435117
67	0x3ca2e44e	0.019884255
68	0xbd58cdd9	-0.052930687
69	0x3bcbe206	0.0062220125
70	0x3c885162	0.016640369
71	0x3db129d1	0.08650554
72	0x3cff6044	0.031173833
73	0x3cdaa272	0.026688788
74	0xbb340618	-0.0027469452
75	0x3d580170	0.052735746
76	0xbc1b40cf	-0.009475901
77	0x3d63d0b4	0.055618957
78	0x3d80582b	0.06266817
79	0x3d025bbc	0.031825766
80	0x3d610d64	0.05494441
81	0xbcf93dcb	-0.030424973
82	0x3dd89f1b	0.10577222
83	0x3beae74d	0.0071686865
84	0x3a274d31	0.0006382047
85	0xbcaf350f	-0.021387605
86	0x3bd8d9c2	0.0066177556
87	0xbd2a48ed	-0.041573454
88	0xbcc3d122	-0.023903433
89	0x3d8dffb5	0.06933538
90	0x3de9075a	0.11378355
91	0xbc802397	-0.01564197
92	0xbccc06b4	-0.02490554
93	0x3d8af64b	0.06785258
94	0xbca0b725	-0.01961858
95	0xbd0b021c	-0.03393756
96	0x3b064a7b	0.002049117
97	0xbdc29b94	-0.095023304
98	0x3b542032	0.0032367823
99	0x3dadb73a	0.08482213
100	0xbd5c3b3b	-0.053767424
101	0x3d19421b	0.03741656
102	0xbcdd5565	-0.027018258
103	0xbe210ac4	-0.15726763
104	0xbe1c3600	-0.15254974
105	0x3c8dcecc	0.017310522
106	0x3e846194	0.25855696
107	0xbdc20773	-0.09474077
108	0xbdc31a47	-0.095264964
109	0x3d61f7fc	0.055168137
110	0xbe35b59a	-0.17745057
111	0xbd0044e1	-0.031315688
112	0x3c5458bf	0.012960612
113	0xbe4dca53	-0.20096712
114	0xbcba1fad	-0.022720182
115	0x3e56c0ac	0.20971936
116	0x3e806f7e	0.25085062
117	0x3d1dc2f1	0.03851599
118	0xbdc60cdc	-0.096704215
119	0xbe04bdf1	-0.12963082
120	0xbdd63e8f	-0.10461151
121	0x3d46c2a5	0.04852547
122	0x3e0b17cd	0.13583298
123	0x3e848dae	0.25889343
124	0x3cd42f6a	0.025901515
125	0xbe2a13f7	-0.16609178
126	0xbe12a8d2	-0.14322212
127	0x3e721866	0.2364212
128	0x3cf5cfd2	0.030006323
129	0x3cb712e1	0.02234787
130	0xbd962d43	-0.07332852
131	0x3dc92172	0.09820832
132	0x3e2db0fe	0.16962048
133	0x3d024c49	0.031811032
134	0xbdc4d55b	-0.09611007
135	0x3c562c82	0.013072135
136	0xbe41dfb9	-0.18933
137	0x3bfa22b0	0.0076335296
138	0xbdd0c3da	-0.10193606
139	0xbe158f92	-0.14605549
140	0xbe551c5b	-0.20811598
141	0x3dff66ea	0.12470801
142	0xbe817fbd	-0.2529277
143	0xbd99393c	-0.0748162
144	0xbe011329	-0.12604965
145	0x3e4990bb	0.19684117
146	0x3e378224	0.17920738
147	0x3d4fd3cd	0.0507391
148	0xbd8115da	-0.06302996
149	0x3dec22db	0.11530086
150	0x3d292a0f	0.041299876
151	0xbd022d00	-0.031781197
152	0x3d171317	0.03688344
153	0x3e16e78e	0.14736769
154	0x3e2bd0b6	0.16778836
155	0xbbf0df7a	-0.007350859
156	0xbe84204f	-0.258059
157	0x3dd03518	0.10166377
158	0x3dab3c19	0.08361072
159	0xbd4b948c	-0.049702212
160	0x3e1d3847	0.153535
161	0x3cfe2013	0.031021154
162	0xbcb73d8d	-0.022368217
163	0x3e520ed4	0.20513469
164	0x3d1ae5ac	0.03781669
165	0xbe5c7a1e	-0.21530959
166	0xbe814b77	-0.25252888
167	0xbced5596	-0.028971475
168	0x3dc4a506	0.09601788
169	0x3e0a761c	0.13521618
170	0x3df0b927	0.11754065
171	0xbc52d621	-0.012868435
172	0xbe05240a	-0.13002029
173	0xbe82f9a2	-0.2558108
174	0xbd37da6e	-0.044886045
175	0x3e26dade	0.16294429
176	0x3e112f63	0.14178233
177	0xbe815f9f	-0.25268266
178	0xbd76178d	-0.060081054
179	0xbd0a4010	-0.0337525
180	0x3d89f3aa	0.06735928
181	0xbdc92cb8	-0.098229825
182	0xbe321a6c	-0.17392892
183	0xbd033872	-0.032036252
184	0x3da287c9	0.07936055
185	0xbbc9a877	-0.006154116
186	0x3e38a8a3	0.1803308
187	0xbc8e5ab0	-0.017377228
188	0x3dc3f5a4	0.095683366
189	0x3e19d5e3	0.15022998
190	0x3e4f0ac8	0.20218956
191	0xbdf68434	-0.120369345
192	0x3e76b690	0.2409308
193	0x3d875cc8	0.066094935
194	0x3e0b1bee	0.13584873
195	0xbe430862	-0.19046167
196	0xbe388292	-0.18018559
197	0xbd4fcacb	-0.050730508
198	0x3d91868b	0.0710574
199	0xbde8a49d	-0.113595225
200	0xbdcb512a	-0.0992759
201	0xbe027471	-0.12739731
202	0xbda846de	-0.08216642
203	0xbe0ba7cf	-0.13638233
204	0xbe090f17	-0.13384663
205	0xbc09821a	-0.008392835
206	0x3de63046	0.11239676
207	0xbdbb9e0a	-0.09161003
208	0xbc4e7b36	-0.012602618
209	0xbc854f5a	-0.01627319
210	0xbe04dc62	-0.12974694
211	0xbd245c8c	-0.040127322
212	0xbcff778e	-0.031184938
213	0x3d77626d	0.0603966
214	0x3db09c28	0.086235344
215	0x3e1e1e75	0.15441306
216	0xbd77c398	-0.060489267
217	0x3dc88415	0.09790818
218	0x3da9bd7f	0.08288097
219	0xbe19d292	-0.15021732
220	0xbdceb7fd	-0.10093687
221	0x3d04808b	0.03234915
222	0xbcb27baf	-0.021787493
223	0x3bd4dd6f	0.0064961235
224	0x3d5d2b82	0.05399657
225	0x3d884ebd	0.06655643
226	0xbde2e420	-0.11078668
227	0xbe4bc64f	-0.19899867
228	0x3d8e45ee	0.06946932
229	0x3e0cbd37	0.13744055
230	0xbc03fc64	-0.00805578
231	0x3d95e5fc	0.07319257
232	0xbe090ecc	-0.13384551
233	0x3bb0524d	0.005380905
234	0x3dd18483	0.10230353
235	0xbd39fd28	-0.045407444
236	0xbdbea5ea	-0.09308989
237	0xbdef1c63	-0.11675336
238	0xbe137a30	-0.1440208
239	0xbde17335	-0.11008302
240	0xbe0ab4e5	-0.13545568
241	0x3da71f67	0.081602864
242	0xbd08d088	-0.033401996
243	0xbd884593	-0.06653895
244	0x3dffe507	0.124948554
245	0x3d9be874	0.07612696
246	0x3e401e94	0.18761665
247	0xbe1fbf25	-0.1560026
248	0x3cf7c495	0.030245105
249	0x3dc65921	0.09684969
250	0x3d06550b	0.032795947
251	0x3ddfa987	0.10921007
252	0x3da9e338	0.08295292
253	0x3def5091	0.11685289
254	0x3e112c02	0.14176944
255	0xbb892431	-0.0041852226
