models/transe_model/trained_model.pkl (torch, 596373 bytes, 2 tensors)

weight f4 [2943, 50]
00000000: 6201 28be 038f b93c e6e2 81bd 7ea7 3c3d
00000010: 6bec 65be 726f 723e 5801 813d e160 4fbe
00000020: 5063 803d 571e 613e a5cc c3bd 5195 3b3e
00000030: c8ae 453e 9f25 6ebc 9b15 cd3d a1b0 663e
00000040: 1702 03bd 140d a9bd ecce 2d3e d3df 0d3d
00000050: 543b 853d ab22 933d d4a6 2e3e a877 49be
00000060: 6f71 f0bd 8e16 42bd 3135 50bc b857 8a3c
00000070: 432a 6c3e ab32 863d 6a8e 9dbd aed3 f13d
00000080: 6046 58be 9fb7 adbd 1a03 ed3d 4b65 82be
00000090: cf8a 733e 7b02 5f3e 6828 12bd ba30 c73d
000000a0: 24ef 97bb 6525 9a3d 67ba 1bbe 9a0e 633e
000000b0: 73ab 2ebe 52a2 0bbe 7051 323e 0acc 9d3d
000000c0: 0305 2d3d bfcb 873d 434b 7cbe d827 963d
000000d0: 4cc6 603d 30d7 413e 7c9b bc3d 9c4a fdbc
000000e0: 71d6 0fbe 2045 503e 5a95 c23d 3c9a 923a
000000f0: db1b 343d dc81 2b3e d42d cc3d cd18 70be
00000100: 2f74 b43d 4a69 40bd 2a0a eabd 64ec 043e
00000110: e80a 4dbd 2ec5 1ebe 291f 4bbe c86d 323d
00000120: 5174 193e df80 13be d967 803d eb67 71bd
00000130: 32f7 603e a15f 59bd 1924 323d 79b1 a2bd
00000140: b653 17be 2cbb ba3d ec76 6c3e b355 6fbe
00000150: 6cd3 5e3e 8e10 0cbe 9900 9a3d 8aed 2f3e
00000160: e52c 82bc 998f 593e 379e 2e3e 14e0 243d
00000170: e6c6 0cbd 1bdf 3c3e 544e 29be edc3 7cbd
00000180: 9327 743e be15 503e 789c ccbd bdd1 eabd
00000190: 4fce 88bd fdca e2bc 6091 a1bd 83ec 3a3e
000001a0: 8f59 08bd 376b 52be 3c56 0e3e 0cb9 583d
000001b0: c035 50be 7a6f b3bd 72ed 763e 874a 2a3e
000001c0: 6e76 89bc 8a91 173d c303 9f3d 738f 58bc
000001d0: 31f0 41be 2ed0 4d3d 5c2f 29be 68bf 6bbc
000001e0: aa83 87bb 95f9 62be 4719 6cbc 03db 12be
000001f0: 34da 89bd 1d09 05be 29db a53c 2f60 55be
00000200: 149e 50be f8d0 183e 58a8 053e b6d4 27be
00000210: b8e2 32be 72f3 6b3e 0cd0 233d 2ec3 b7bd
00000220: 8ad4 21be fb0a 49bb 794b 59be b38b c2bd
00000230: e110 6fbe 7c63 7ebe 4cd2 e7bd 0d63 88bd
00000240: f9a7 a9bc 0923 21be 547f 793e f3fb eabd
00000250: 892e f13c 35d1 3c3e 3216 f43c c726 723e
00000260: b8dd 9dbc 05e3 5b3e a26a 563e c34d c3bc
00000270: 4fd5 c93d 3c4f 27be 57a1 563d 00e9 9fbb
00000280: 2648 2c3e e2c5 013d d003 423d 5269 c2bd
00000290: 238c 5c3e db2d 62be aaac 523e 225f 26bd
000002a0: 6198 2fbd 2717 d7bd bb78 8bbd 57bc e9bd
000002b0: e523 973d 1cb3 403e 9884 95bd d63d 5c3d
000002c0: 0b3c bd3b 399e 3f3c 3644 bdbd dbd0 b7bd
000002d0: fb50 f63d d189 1bbd 5002 f73b 5baa 523e
000002e0: 786c 5bbe 849e 24be f465 82be 3707 593e
000002f0: eabc 45be 8604 333e f834 34be 96a0 873d
00000300: 7a6d 7fbc 4c88 51bd c78b 0f3e fa9d ce3c
00000310: 86ec 6d3e 41a1 3d3e 667a 41be 30aa 5dbe
00000320: f35a 2ebe cf0e 0dbe 513b 0e3d 502c a4bc
00000330: c4b1 12be e04b e83d 896b 46bd ced4 44be
00000340: 215d 10be 2e93 f83d 947b 90bc f36d 7f3e
00000350: e2ce 2b3e 0b94 1d3e 93a3 3a3e e144 203e
00000360: 1898 a53d 5adc 7abd 85bd 4abc 4d03 3fbe
00000370: a553 39be 8276 8dbe 37f2 e03d 4fbd 123e
00000380: 1b0b f43d 9850 683e 20ec 953d f2a9 9bb9
00000390: ea13 ce3d 0f06 3a3e 93ba 853d 7300 553e
000003a0: 11c8 943a 7487 3f3d 58ed cabd 34ef 333e
000003b0: 6d01 8dbe fe57 f43c b6f9 63be e470 193d
000003c0: 728d 8abe 1d77 aabd 9693 ff38 66df a2bd
000003d0: a7dc 2a3e 8a8a 933d 17ed 50bd cecc 33bd
000003e0: adb9 09bd 5641 273e 1cb7 843d 72c1 1e3e
000003f0: 9470 b23d ffa4 0e3e c611 21be d146 e93d
-0.16406778 0.022651201 -0.063421056 0.04605817 -0.22453468 0.23675326 0.062990844 -0.202518
0.06268942 0.2198423 -0.09560517 0.18318678 0.19304955 -0.014535337 0.100138865 0.22528316
-0.031984415 -0.082544476 0.16973466 0.034637284 0.065054566 0.07184347 0.17055827 -0.19674551
-0.11740386 -0.04738479 -0.012707994 0.01688753 0.23062997 0.06552633 -0.07693179 0.11807953
-0.21120596 -0.084822886 0.11572857 -0.25467905 0.2378342 0.2177829 -0.035683066 0.09726091
-0.004636662 0.07526664 -0.15207826 0.22173539 -0.1705759 -0.13636139 0.17413878 0.07704933
0.042241108 0.06630658 -0.24638085 0.07331818 0.05487661 0.18929744 0.09209344 -0.030919366
-0.14046647 0.20338869 0.09501143 0.0011184881 0.043971878 0.16748756 0.099696785 -0.23446961
0.08811223 -0.04697541 -0.1142772 0.12980801 -0.05005923 -0.15504906 -0.19836105 0.043561727
0.14985777 -0.14404629 0.06269807 -0.058936995 0.21969298 -0.053069714 0.043491457 -0.079440065
-0.14778027 0.091177315 0.2309224 -0.23372535 0.21760339 -0.1367819 0.07519645 0.17180458
-0.015890548 0.21246184 0.17052542 0.04025276 -0.03436937 0.18444483 -0.16533786 -0.061710287
0.23843221 0.20320794 -0.099907815 -0.11465786 -0.06679975 -0.027684683 -0.07889056 0.18254285
-0.033288535 -0.20548712 0.13900083 0.05291085 -0.20333004 -0.08761497 0.24114016 0.16629992
-0.016780104 0.03700403 0.07764389 -0.013217795 -0.18939282 0.050247364 -0.16521972 -0.0143888965
-0.0041355686 -0.2216552 -0.014410323 -0.14341359 -0.06731072 -0.12991758 0.020246105 -0.20837472
-0.20372802 0.14923465 0.130525 -0.16389737 -0.17469299 0.23042086 0.03999333 -0.089727744
-0.15803733 -0.003067671 -0.21220197 -0.09499302 -0.23346283 -0.24842638 -0.11319408 -0.066595174
-0.020709978 -0.15736021 0.24364978 -0.11473837 0.029441135 0.18439181 0.02979574 0.23647605
-0.019270763 0.2147332 0.20939115 -0.02384079 0.098551385 -0.1633882 0.05239996 -0.0048800707
0.16824397 0.031682856 0.047366917 -0.094927445 0.21537833 -0.22087805 0.20573679 -0.04061807
-0.04286993 -0.10502463 -0.06810137 -0.11412876 0.07379893 0.18818325 -0.07300681 0.05376991
0.00577498 0.011695438 -0.09241526 -0.08975383 0.120271645 -0.03797323 0.0075381175 0.20572798
-0.21428096 -0.16076094 -0.2546841 0.21194158 -0.19310346 0.17482194 -0.17598331 0.06622426
-0.015590066 -0.051155373 0.14018165 0.025221813 0.23234758 0.18518545 -0.18894348 -0.21646953
-0.17026882 -0.1377518 0.034724537 -0.020040661 -0.14325625 0.11342597 -0.048442397 -0.19221804
-0.14098026 0.12137447 -0.017637052 0.24944286 0.16778138 0.15388505 0.18226461 0.15651275
0.0808565 -0.0612453 -0.012374287 -0.18653603 -0.18098314 -0.27629477 0.10983699 0.14330028
0.11916181 0.22686994 0.07320428 -0.00029690523 0.10062392 0.18166374 0.06529727 0.20800953
0.0011351128 0.046760038 -0.09908551 0.17571718 -0.2754015 0.029827114 -0.22263226 0.037461177
-0.2706104 -0.083235 0.000121868376 -0.07952766 0.16685735 0.072041586 -0.051007356 -0.04389649
-0.03362434 0.16333517 0.06480238 0.15503481 0.08712879 0.13930129 -0.15729436 0.1139046

weight f4 [12, 50]
00000000: 7be9 4fbd b3a5 15bd 5fd7 74bd ee6d 4d3c
00000010: 2b2b a13b c001 06bc cc49 17bd c2f3 f83d
00000020: 94f3 69bd fc73 2b3e f5ca 393d 7aa2 333e
00000030: f2c9 093e 0aa5 9d3d 02b2 a6bd c73f 26be
00000040: 8fd6 b6bd 7e9a e43c aa03 75be 2c29 dbbc
00000050: 1231 e43d 9b03 efbc 6d4b 92bd d57d 32bd
00000060: 78e8 0a3c d550 4abd c32f 5ebb 03f9 02be
00000070: 03aa 0fbc bd29 c03d e82e 67bd 0f25 9b3c
00000080: 44fa 2ebe 7f87 133c 1775 86be 01ab 40be
00000090: 873d afbd eab2 ccbc 8827 213d 2a7d f03d
000000a0: 62ce efbd 96d7 a33d 7421 b6bd fa2b edbd
000000b0: 90be ee3d 7bf3 b43d a44b 213b bcb2 9c3d
000000c0: f3ba 64bc 0c1e 67be c61d 8cbe bc86 38be
000000d0: 774c 5bbe 3974 193e 7259 bcbd 2771 7dbe
000000e0: 0a0d d7bc bbed 24be 89a4 3fbe 5d9d 033e
000000f0: bee7 7b3d 397a 1b3e 33d9 67be 8713 c83d
00000100: 056a dd3c 85bd 18be acf1 80bd cdf5 8e3e
00000110: b2d9 1abe 27f3 bebd 4317 833d 2b22 4a3e
00000120: 03e4 d13d 5964 ea3d 3175 61be 2836 053e
00000130: 0b29 e43d 49ea 1ebe aa2d 843e 107b 423e
00000140: 6622 da3d 4670 1fbe df7e 563e 7110 df3d
00000150: 7582 03be 17da 12be 8230 e0bd 8c99 4dbe
00000160: f968 bdbd cc2b 963e a224 5b3e 1595 323e
00000170: 1e44 23be 1edc c53d ab13 583d 5d02 033e
00000180: 32f5 293e 6b3c a3bd 8329 2b3d ed96 163e
00000190: 615b 7cbe 0eb4 4bbd afc5 48bb a0f4 1cbb
000001a0: 3a7b b8bd 3781 b5bd 980a 0d3e 1287 d3bd
000001b0: fa0f 5cbe c891 433d 2475 90bd 5f40 ee3d
000001c0: fc99 8ebc c464 c2bd 2587 ae3c 38c9 d93c
000001d0: 685c 153e 2028 a43d 1fc8 adbc 0eac 19be
000001e0: 6243 0cbe 4103 503e 5603 523d b67d b63d
000001f0: d3fc 11bd c41c 5ebc 315a 34bd ad7e 023e
00000200: b958 19be c35c 0e3e dc12 d43d 4074 c63c
00000210: 8573 f63d 9e3e d6bc 6bde 0cbe 9f13 01be
00000220: a44b 24be 72e6 0e3d 7360 f2bd 19a6 bbbd
00000230: f171 09be 9ece 313e bf79 08be 27a3 06bd
00000240: 2e1f f13c d459 0c3e db41 c73d ee76 2bbd
00000250: c4c7 173d b0b0 223e 832e 7cbd 3a6e 53be
00000260: 8497 043e c3ab fa3d 6114 d93d ed66 043e
00000270: da2d 45be 4e99 6b3d 9d0e c8bd d217 bfbd
00000280: eda3 0a3e ce47 433e f83e a33d 9645 ec3d
00000290: c568 563e 24f7 5abe 2cec 59be ddf0 fc3d
000002a0: 9a04 103e 002c e5bd 5af2 6bbd b884 e43d
000002b0: 87b9 03be 70a4 5bbe 6007 f2bc e0fb 263e
000002c0: a7b3 203e 9963 d6bd 6103 06be 6899 163e
000002d0: b20e 5a3e 45c8 9cbd 09d6 0cbe ede4 e7bd
000002e0: 1eb7 dcbd 9512 fbbd c33a 113e 55de 65bc
000002f0: d62a 893d 37ae 243d 6e0c f93d 8311 30bd
00000300: 8e19 213e 9620 ed3b 0481 d63d 8bba 9dbd
00000310: d431 5bbd 5187 993d 9667 303e 1346 8fbd
00000320: f848 b5be 9ab1 82be 3ec6 f23b f37a e7bd
00000330: 9711 1cbd 5b24 52be 38c2 253d 824e 7dbe
00000340: dc74 b0bc d8ef 65be fb02 983d ae13 483e
00000350: d2dc 14be ccbc 393e 00e8 133e 3e74 ff3d
00000360: 0779 28be efee 293e 0fbb 313e 36d0 65be
00000370: 39b8 dcbd caaf 5e3d 42b0 9bbd 70d7 a5bc
00000380: c24b efbd f51e 8d3e eb11 95bd 2c45 67be
00000390: eb6e 503e d36c 863e 8688 4d3d 6253 2ebe
000003a0: 0071 86be 66b3 92bd 1191 043e 66b9 73be
000003b0: 6fae 5fbd 2c9e 92be 911b 88be 156d 95bd
000003c0: 7cff 3f3e faf5 873d 3e38 823d 831d 72bc
000003d0: 3b12 713e bfed 1e3e 82af 983e 7c22 1dbe
000003e0: 55f4 883e 0cd2 593d 6c26 b9bc 5f4b 4c3e
000003f0: 2dc2 183e 2464 f03d f9c8 5a3e 4554 37bd
-0.050759774 -0.036534976 -0.059775706 0.012538416 0.004918476 -0.008179128 -0.036935613 0.12155868
-0.05711706 0.16743463 0.04535957 0.17542449 0.13455942 0.07697494 -0.08139421 -0.16235267
-0.089276426 0.027905699 -0.23927179 -0.02675303 0.11142172 -0.029176524 -0.071432926 -0.043577034
0.008478276 -0.049393494 -0.003390298 -0.12790303 -0.008768561 0.09382961 -0.056441218 0.01893857
-0.17087656 0.009004473 -0.26261207 -0.18815233 -0.08556657 -0.024987657 0.03934434 0.11742623
-0.11709286 0.08000104 -0.088930994 -0.115806535 0.11657441 0.08835503 0.0024611736 0.076512784
-0.013960588 -0.22570056 -0.27366465 -0.18020147 -0.21415888 0.14985742 -0.09196748 -0.24750195
-0.026251335 -0.16106312 -0.18715109 0.12852998 0.061500303 0.15183343 -0.22641449 0.097693495
0.027028093 -0.14916046 -0.06296095 0.27921906 -0.15122107 -0.093237214 0.06400921 0.19739597
0.10248568 0.11444921 -0.22017361 0.1300894 0.11140641 -0.1551906 0.2581609 0.18992257
0.10651092 -0.15570173 0.20946835 0.10891808 -0.12842734 -0.14341007 -0.10946752 -0.20078105
-0.092485376 0.2933029 0.21400693 0.17439683 -0.15943953 0.09661125 0.05275313 0.1279387
0.16597441 -0.07970508 0.041787636 0.14706011 -0.24644233 -0.04973226 -0.0030635407 -0.0023949519
-0.090078786 -0.088625364 0.13773572 -0.10328497 -0.2149047 0.04774645 -0.07053593 0.116333716
-0.01740741 -0.09491876 0.021304676 0.026585206 0.14586031 0.08015466 -0.02121359 -0.1500704
-0.1369758 0.20313741 0.051272713 0.08910696 -0.035641503 -0.013556663 -0.044031326 0.12743635
-0.14975251 0.13902573 0.1035516 0.024225354 0.12033752 -0.026152905 -0.1375672 -0.12605141
-0.1604448 0.03488774 -0.118348025 -0.0916254 -0.13422371 0.17363974 -0.13327692 -0.032870438
0.029433813 0.13706142 0.09729358 -0.041861467 0.037055746 0.15887713 -0.061567795 -0.20647517
0.12948424 0.12239792 0.1059959 0.12929888 -0.19255772 0.05751925 -0.09768412 -0.09330715
0.13539095 0.1907036 0.07970995 0.1153671 0.20938404 -0.21383339 -0.21281499 0.123506285
0.14064255 -0.11190033 -0.05760417 0.111581266 -0.12863742 -0.21449447 -0.029544532 0.1630702
0.15693532 -0.104682155 -0.13087226 0.14706957 0.21294668 -0.07655386 -0.13753523 -0.11322961
-0.10777114 -0.122594036 0.14182572 -0.014030059 0.066976234 0.040205207 0.12160574 -0.04298545
0.15732405 0.0072365506 0.104738265 -0.07701596 -0.053514317 0.07496513 0.17227015 -0.069957875
-0.35407233 -0.25526124 0.007408886 -0.113027476 -0.038102712 -0.20521681 0.040468425 -0.2473698
-0.021540098 -0.22454774 0.074224435 0.19538757 -0.14537361 0.18138427 0.1444397 0.12473343
-0.16452418 0.16595052 0.17356513 -0.22442707 -0.10777325 0.054366864 -0.07601978 -0.02024433
-0.116843715 0.2756268 -0.07278808 -0.2258498 0.20354812 0.262549 0.050179027 -0.17023996
-0.26258087 -0.07163124 0.12945963 -0.23801193 -0.054609712 -0.286363 -0.26583531 -0.07296196
0.18749803 0.06638713 0.063583836 -0.014777544 0.2354211 0.1552038 0.29821402 -0.15345186
0.2674891 0.053178832 -0.022601329 0.19950627 0.14917822 0.1173785 0.21365727 -0.0447581
