models/distmult_model/trained_model.pkl (torch, 599705 bytes, 2 tensors)

weight f4 [2943, 50]
00000000: 2846 e53d 5748 323e d16a 17be 3988 e73b
00000010: 85be 0dbe d60c 393d ef40 553e 6b0b 53bd
00000020: d741 0ebe 5bcd 6b3e 77ee 963d bf20 633e
00000030: cc00 653d 55ec 34be 75b5 13be 73ea 00be
00000040: 8ff9 edbd 4788 d43d 56e3 063e fe64 5bbe
00000050: 73ef 083e 1ade 463c d216 123e 8872 c03d
00000060: 0ba3 223e 2cae 3fbe c78e 1cbe 4adb e73c
00000070: 0cce f93d 32da ec3d 88f1 2a3e a432 05be
00000080: e6e4 7bbe d03a faba 8182 973d 9e5b 4bbe
00000090: d241 093e 6032 52bd f569 2abe bca3 c3bc
000000a0: 4102 2d3e 5864 81bd a44d ef3d 17cd 4a3e
000000b0: 54ba 3b3e 646a 283e 02c5 1e3e 6bb1 243e
000000c0: 088e e0bd f751 ff3d aefd aa3d d90e 32be
000000d0: 3720 56be feb1 df3d c2c1 243e b0cd a63d
000000e0: 3e27 63be 3b5f 2d3e 0437 0abe 5286 e83d
000000f0: 1042 6a3d 84bd 313e d878 e43d 7f0d 8f3d
00000100: 5cba c13c 1fef 26be e503 9e3d 3c86 48bd
00000110: 5440 1dbe 6ee2 233e 34ab 1c3e 35be c2bd
00000120: fe42 1e3e 68ca 42be a9ba 48be 5e68 4bbe
00000130: 378a 253e 9dc2 2dbe c1e5 023e 9cb7 51bd
00000140: 14df 8b3d a695 423e 1244 3a3e 5520 1a3e
00000150: 540d 0e3e 4915 4fbe e0fe 3c3e 3b39 9b3d
00000160: 9160 23be 1489 413e 5a1f 98bd a7d2 093e
00000170: 0977 41b9 9f11 3a3d d507 d9bd f342 3dbe
00000180: 6226 253e 6b4a 603d 5e21 22be bc04 65bd
00000190: 6d36 c2bd 5a5a 573e d6fe 023e 7e3f 9a3b
000001a0: b3ef 01be 5923 e3bc fe52 adbd e56c 37be
000001b0: f283 e03d e277 18be e42b 19be 7bc8 383e
000001c0: 51d1 0fbd 690c 133e 7ac5 4d3e debd 5c3e
000001d0: fa11 063e 4dc7 1f3e 6e66 1cbd e6e5 373e
000001e0: a8b1 39be 9eae 06bd ab5d d0bd 8bf1 0bbe
000001f0: 2cc8 10be dc08 5abe fb12 f1bd 1e30 fb3d
00000200: 1275 d2bd a63d d2bd 8496 ccbd 85e3 a7bd
00000210: dcac 153e 422a 4b3e 2a7d ec3c 0753 ab3d
00000220: f61a 5f3d 4f0a 30be a1b4 51be b24f 38be
00000230: 04af a53d f81b 2ebe 46b9 4dbe 2d76 f8bd
00000240: 33cf 2b3e 17c3 52be 699e e7bd fe99 c2bd
00000250: 4e51 0cbe 38df 2e3e a761 af3d 04f6 febd
00000260: bda0 1a3e d61c 233d 4c97 7e3e 9a3a df3c
00000270: 12c0 30be d74b 2abe d477 3a3e ad9d 073b
00000280: 5e2c 713b 910c 38be 06f1 8ebd db98 cd3d
00000290: 1586 16be 1ac6 33be 07a9 9abd 1486 2a3e
000002a0: e400 d33d 2a9c 2f3e a48c 5d3e d8fa 6abd
000002b0: c2c1 203e 7b57 223e cc0b 44be 9366 113e
000002c0: 48ea 2abd 900c b33c 30ad 663d 339f 1ebe
000002d0: 79bd 513e 1a80 263d 6558 33be b81d 0e3e
000002e0: db08 29bd d951 18be e113 8ebc 25b1 623e
000002f0: 59d6 cabd 37fd 473e 6d57 1d3e 15b3 253e
00000300: 3321 44bc 73c4 47be f0b3 003e 0c51 133e
00000310: d991 273e b097 7f3d 9ef1 08be fb0d 6bbe
00000320: 30ad 03bc cc07 453e 678a 36be b419 07be
00000330: d12a fabb 1db2 223e 3bbb bcbd 72f7 02be
00000340: 834e 14be 5299 453e b409 973d ca41 133e
00000350: bb11 34bd 674d 373d 1293 583e 3a17 393e
00000360: de51 a9bd 9a44 313e 3868 16be 6f17 133e
00000370: 75b3 143d 375f 05be 588e 6e3e 0637 5e3e
00000380: 89d3 8e3d 95a7 4ebe 32e6 2c3e ef56 2d3e
00000390: f999 06be 62e9 0e3e f251 c5bc f379 4e3d
000003a0: 1cac 213d 3f7b 21be 5242 a33d 84fd 343e
000003b0: cb18 9c3d 7bb6 0e3e 347f 253e ac73 2bbe
000003c0: d558 2bbe 6852 f43d b54f 15be c1b2 66bd
000003d0: 7e32 3b3c ed81 08be 52da 4a3e e93e 463e
000003e0: b8e5 3bbe 1254 0abe a846 173e 2e97 90bc
000003f0: 9a68 1cbe 7f33 29be df5a 503c f1ec 4c3e
0.11195022 0.17410408 -0.14786841 0.0070657996 -0.13842209 0.045178257 0.20825551 -0.05152456
-0.13892303 0.23027556 0.07369702 0.2218046 0.055908963 -0.17668279 -0.14424689 -0.12589435
-0.11619865 0.10377555 0.1317266 -0.21425244 0.13372593 0.012137914 0.14266518 0.09396845
0.15882508 -0.18718785 -0.1528884 0.028302807 0.121975034 0.11565055 0.166937 -0.13007599
-0.24599037 -0.0019091014 0.073979385 -0.19859168 0.13404015 -0.051317573 -0.16641982 -0.023881786
0.16895391 -0.06317967 0.11684731 0.19804798 0.18332797 0.16446835 0.1550484 0.16083305
-0.1096459 0.124668054 0.08349167 -0.17388476 -0.20910726 0.10922621 0.16089538 0.081447005
-0.22182938 0.16930859 -0.1349755 0.113537446 0.05719191 0.1735745 0.111558616 0.06984996
0.023648433 -0.16302155 0.077155866 -0.04895614 -0.1535657 0.16004345 0.15299684 -0.09508935
0.15455243 -0.19022524 -0.19602455 -0.19864032 0.16166006 -0.1696877 0.12782957 -0.051200494
0.06829658 0.19002399 0.1819003 0.15051396 0.13872272 -0.20222963 0.18456602 0.07579275
-0.15954806 0.18899947 -0.07427855 0.13459264 -0.00018450258 0.04542696 -0.10597197 -0.1848257
0.16127923 0.05475847 -0.15833041 -0.05591272 -0.09483037 0.2103056 0.12792525 0.004707276
-0.12689094 -0.027726816 -0.08463095 -0.17912634 0.109626666 -0.14889482 -0.14958149 0.18045227
-0.03511173 0.14360203 0.20094863 0.21556804 0.13092795 0.15603371 -0.038183622 0.17958793
-0.18134177 -0.03288137 -0.10174116 -0.1366636 -0.1413886 -0.21292442 -0.11771198 0.12265037
-0.10276236 -0.10265665 -0.09989646 -0.08197693 0.14616722 0.19840339 0.028868277 0.083654456
0.05446907 -0.17191432 -0.2047906 -0.17999151 0.08090022 -0.17002857 -0.20090207 -0.12131915
0.16778259 -0.20582233 -0.11309511 -0.09502028 -0.1370289 0.17077339 0.085635476 -0.124492675
0.1510038 0.039822422 0.24862403 0.027249623 -0.17260769 -0.16630493 0.18209773 0.0020693347
0.0036800127 -0.17973544 -0.06979565 0.100389205 -0.14699586 -0.17556038 -0.07551771 0.16652709
0.10302904 0.17149416 0.21635681 -0.05736813 0.15698913 0.15853684 -0.19145125 0.14199285
-0.041727334 0.021856576 0.05631751 -0.15490417 0.20482434 0.04064951 -0.17514189 0.13878524
-0.04126821 -0.14874972 -0.017343463 0.22137888 -0.09904165 0.19530188 0.15365382 0.16181596
-0.011970806 -0.19508533 0.1256864 0.14386386 0.1636423 0.06240052 -0.1337342 -0.22954552
-0.008036897 0.19241256 -0.17826234 -0.13193399 -0.0076344986 0.15888257 -0.09215399 -0.12789705
-0.14483075 0.19296768 0.073748976 0.14380565 -0.04396222 0.04475155 0.21149853 0.18075266
-0.08267568 0.17311326 -0.14688194 0.14364408 0.036303956 -0.13024603 0.23296487 0.21700677
0.06973941 -0.20181115 0.16884688 0.16927694 -0.13144673 0.13956216 -0.024086926 0.05040927
0.039470777 -0.15769671 0.07971634 0.17674834 0.076219164 0.13936798 0.16161805 -0.16743344
-0.16733105 0.1192978 -0.14581187 -0.056322817 0.0114256125 -0.13330813 0.19809845 0.19359936
-0.1834935 -0.13508633 0.14773047 -0.017650213 -0.15274277 -0.1652355 0.012716978 0.20012261

weight f4 [24, 50]
00000000: d464 a7b9 55bd 0eba 1f41 1a3a 45ee 0bba
00000010: cef6 663a 59c2 9137 f42f c53a 533b 253a
00000020: d66a b6ba 3c22 e03a 77e2 a9b9 af80 c8ba
00000030: 23f2 35ba 8b07 9f3a c909 8b3a 7348 d4b8
00000040: 8eb0 203b aa1e 5e39 3046 8db9 1258 9e39
00000050: 7eeb 1dba d43b d3ba 42ca b8b8 27d4 87ba
00000060: 2fa4 a2ba bc6a f0ba 1426 9fba c83d 20ba
00000070: a2fc 1539 97f5 e339 800d 03ba 137d 21bb
00000080: 00fd 72ba bb03 88b9 b4e8 613a d531 1dbb
00000090: c4da a33a 5580 82ba 6c65 8b3a 0090 303a
000000a0: 93cc 0cbb c1a2 e3ba f6ed d7ba 12f5 aeba
000000b0: 1bb3 b939 9dc9 1f3a fb14 a1ba ff09 5eba
000000c0: 677a c33a 0108 7bb9 3689 5e3a 93f2 ce3a
000000d0: 8a78 dab9 5f84 c238 8450 b839 9a1d 2539
000000e0: e273 3e39 33ff 6ab8 bc29 2eb8 0167 5aba
000000f0: 1a63 403a cfdb c337 8a6d d43a ef0d 4739
00000100: 46c0 bc3a af12 bc39 9456 44ba 2d52 16b9
00000110: 8a46 db36 cb67 20ba 0b80 57b8 b575 04ba
00000120: f17a b539 449a 1dba c485 71ba dbb0 cbba
00000130: 9c64 c3ba 0f55 9d39 3e0d 6c3a c567 843a
00000140: 9beb 1dbb 3b12 d4ba 2399 83b7 0249 81ba
00000150: 26b7 4c39 5982 403a dc4c 92b9 d6bd 0c3b
00000160: d2fc ceb9 b393 2938 6cc7 3cba 9e86 dfb9
00000170: 0ff9 9839 ff8a e7b9 f743 e8b9 f1b3 1f39
00000180: 90e2 f039 c0be 32b9 b96f 2339 ed6e 65ba
00000190: 700d 91bf 1015 c2bf f571 bd3f 0fe6 f03b
000001a0: e392 903f a394 9dbe 6d60 cd3f 89bf a83f
000001b0: e04b b2bf c57d a3bf 625c acbf a59d a83f
000001c0: 6b8b 993d 397b ad3f c169 a1bf 6e47 b63f
000001d0: 4ce2 a5bf 087a 9ebf 2b59 dc3e b4d7 c1bf
000001e0: 5d92 bfbf a4bb bc3d eff6 843f b326 893f
000001f0: 32de b9bf c04d c1bf 827e a43f 7784 84bf
00000200: e55b ab3e df0d 84bf 9b60 a03f b4e7 1bbf
00000210: de39 a0bf dd55 aabf 21f5 423d 5c7e 1e3f
00000220: 8758 1bbf 7171 9d3f f7e8 9ebf 4d67 9d3f
00000230: 646f a6bf 0a97 a73f 57fc 683f 55c0 7c3f
00000240: 042a babf ecd2 9f3f dcba 9a3f e0d9 833f
00000250: a4eb a13f 9038 95bf 4f22 95bf 8e26 c0bf
00000260: 48ae bb3f aa04 253c ad49 923f d572 a2be
00000270: 9306 c63f e371 a93f 27a3 b2bf 3f99 a2bf
00000280: 844a afbf b78c ab3f a858 e13d d9df ae3f
00000290: a9fb 9dbf a659 b63f 289d a1bf 8779 a0bf
000002a0: 4cb6 da3e 957a c7bf 99b1 bfbf 6ee1 d13d
000002b0: cb1a 843f 22b3 813f 3718 b8bf 2ff7 c2bf
000002c0: 7ee3 a63f e9ef 83bf 0c68 a93e 24b7 83bf
000002d0: 6249 a03f a617 1dbf 23d2 a1bf 2b0d acbf
000002e0: 754c 733d 9d50 223f ac29 1ebf 16bb a03f
000002f0: c578 a2bf bcd2 9e3f 4288 aebf 15c9 a93f
00000300: e57e 663f b688 813f 3542 babf 3347 9f3f
00000310: f3a4 9a3f 4b30 843f 6d1f a23f 38ac 94bf
00000320: 0428 b4bf c8b5 bebf 3d31 c03f 8b4c 96bd
00000330: b21c d53e 1aa2 61bf f479 cf3f 3ccc a33f
00000340: 5bf6 bcbf 8d34 b4bf 5750 76bf dde5 b13f
00000350: 23ab 75be 897c 923f 9b1e 66bf be7e 8d3f
00000360: 6ed8 b7bf 0835 9cbf a71a 8a3f 240d 93bf
00000370: cab3 bcbf 7f61 22bf 70ed 823f 0d90 2b3f
00000380: 8832 afbf 6ad2 c1bf 8b10 683f 3f9e 4e3e
00000390: 7698 5d3d e40c c4be beea 953f d1bc 7dbf
000003a0: b365 a8bf 78b8 a7bf f057 e6bc 9fb8 663e
000003b0: fa16 16bf 1f2a 923f 5f8a a5bf 2bfd ac3f
000003c0: 1b62 b4bf 2dc0 c03f 8abd 993f 380f 913f
000003d0: 00f9 96bf d925 8f3f 8da3 b93f da03 8f3f
000003e0: 6fb0 903f c4c4 853e 6df2 a8bf e4c9 b5bf
000003f0: 7e63 b93f 82f9 8abd 58aa c43e 18c4 61bf
-0.00031927845 -0.0005445083 0.00058843376 -0.0005337934 0.00088105805 1.7375847e-05 0.0015044198 0.00063030905
-0.0013917338 0.0017100046 -0.0003240292 -0.001529714 -0.0006940683 0.0012132985 0.0010607775 -0.000101224425
0.0024519297 0.00021182993 -0.0002694591 0.00030201726 -0.0006024166 -0.0016115853 -8.811477e-05 -0.0010362909
-0.001240855 -0.0018342356 -0.0012142085 -0.0006112722 0.0001430386 0.00043479793 -0.0004999265 -0.00246412
-0.00092692673 -0.0002594272 0.00086177443 -0.0023986 0.001250111 -0.0009956459 0.0010635084 0.0006735325
-0.002148424 -0.001736723 -0.0016474116 -0.0013348183 0.00035419394 0.00060954114 -0.0012289578 -0.00084701175
0.0014913798 -0.00023940207 0.0008489074 0.0015788845 -0.0004167001 9.275297e-05 0.00035155204 0.00015746654
0.00018162982 -5.602762e-05 -4.15237e-05 -0.0008331389 0.0007338986 2.3348168e-05 0.0016206962 0.0001898331
0.0014400564 0.00035872075 -0.0007489708 -0.00014335728 6.5349204e-06 -0.0006118982 -5.1379244e-05 -0.000505294
0.0003461461 -0.0006012062 -0.0009213353 -0.0015540378 -0.0014907303 0.00030008747 0.0009004659 0.0010101727
-0.002409673 -0.001617975 -1.5687727e-05 -0.0009863677 0.00019523184 0.0007343642 -0.00027904555 0.0021475456
-0.00039479748 4.0430295e-05 -0.0007201347 -0.00042634172 0.00029177262 -0.00044163314 -0.00044301126 0.00015230455
0.0004594517 -0.00017046463 0.00015586511 -0.0008752186 -1.1332226 -1.5162678 1.4800402 0.007351644
1.1294826 -0.30777463 1.6045052 1.3183452 -1.3929405 -1.2772757 -1.3465693 1.3173109
0.07497295 1.355323 -1.2610399 1.4240549 -1.2959685 -1.2380991 0.4303678 -1.5143952
-1.4966542 0.09215477 1.0387858 1.0714935 -1.4520934 -1.5101852 1.2851107 -1.0352925
0.33468547 -1.0316733 1.2529482 -0.60900426 -1.251766 -1.3307453 0.047597054 0.6191156
-0.60681957 1.2300245 -1.2414845 1.229715 -1.3002744 1.3092968 0.9101004 0.98730975
-1.4544072 1.2486243 1.2088275 1.0300865 1.2650037 -1.1657887 -1.1651095 -1.5011766
1.4662561 0.010071913 1.1428734 -0.31728235 1.5470756 1.323788 -1.395604 -1.2703017
-1.3694615 1.3402318 0.11003238 1.3662063 -1.2342426 1.4246109 -1.2626085 -1.2537087
0.42717206 -1.5584284 -1.4976074 0.102480754 1.0320677 1.0132792 -1.438239 -1.5231684
1.3038175 -1.030759 0.33087194 -1.0290265 1.2522395 -0.6136421 -1.2642254 -1.3441519
0.059399087 0.63404256 -0.61782336 1.2557094 -1.2693106 1.2408061 -1.3635333 1.326449
0.90037376 1.0119846 -1.4551455 1.2443603 1.2081589 1.0327238 1.266584 -1.1615057
-1.4074712 -1.4899225 1.5015026 -0.07338818 0.41623455 -0.8813797 1.6209092 1.2796702
-1.4762682 -1.4078537 -0.9621634 1.3898274 -0.23991065 1.1444255 -0.8989045 1.1054304
-1.4362924 -1.2203684 1.0789384 -1.1488385 -1.4742367 -0.6343002 1.022871 0.6701668
-1.3687296 -1.5142338 0.9065024 0.20177554 0.054100476 -0.38291085 1.1712263 -0.99116236
-1.3156036 -1.310317 -0.028118104 0.22531365 -0.5862881 1.1419104 -1.2932853 1.3514761
-1.409244 1.5058647 1.2010968 1.1332769 -1.1794739 1.1183425 1.4503037 1.117305
1.1303843 0.26126683 -1.3198982 -1.4202237 1.4483488 -0.06785871 0.38411212 -0.8818984
