models/distmult_model/trained_model.pkl (torch, 597273 bytes, 2 tensors)

weight f4 [2943, 50]
00000000: ee8b d8bd a8a9 dabd 1409 12be 9e7a ed3d
00000010: 4044 38be 6d1c 10bc 04da 56bc caf7 60bd
00000020: 2e58 d9bd 4f19 ecbd 73b6 2dbe 2d17 643e
00000030: 39fd 413b 7dd6 3abe 90d0 103e 4d39 0f3e
00000040: 69e8 103e b7ff 103e 8e60 a93d eb86 d0bd
00000050: da6e 463e 563f 3bbe 0fa3 c03d 1a01 80be
00000060: 1f1e 9bbd 6225 4fbd 6034 15be a94e 823e
00000070: 4b9f 5e3e 7ee1 723d 522d f7bd f9d4 2c3c
00000080: ef48 71be 6883 05be 0059 21bd 0721 85be
00000090: 48f7 943e a2dc 583a 379a ae3d 604c cc3d
000000a0: 9252 b2bd 65ac bebd 3baa bf3d f72b 87bd
000000b0: 6ece f43d 0645 15be 59e9 4c3e e8dd 1ebe
000000c0: f895 743c 7058 34bb b48d 83bc 05c2 df3d
000000d0: 21f2 3c3e d404 d0bc 1698 313e 33fb c4bd
000000e0: de93 f33b 0cd6 3d3e ddbf c7bd b587 6b3e
000000f0: 50be f73d 9204 c63d 1351 3b3e 8aac 05be
00000100: 03f6 e4bd 52a8 2bbe b0b6 d8bd 2ff4 96bd
00000110: e52d 37bd 576e 5ebe 2d42 18be 6119 303e
00000120: e540 c6bd 8a20 38be 1810 7abd 7447 0abe
00000130: 2893 5c3e 5883 d63d 3b2d 283e 8c0b d73c
00000140: c4bc 5a3c 0fce 8dbd 220a 8d39 a73d 3ebe
00000150: fed3 7c3e 44c8 2abe 6860 3b3e b3e8 bf3d
00000160: b38e 17be 83d5 6a3e 3f81 413e 4d5e 69bd
00000170: 43df 28bd e03e b4bd d2d5 24be f8f9 32be
00000180: d2b9 163e da4f ebbd 38a1 42be 88ff f8bd
00000190: 1bf3 aebd f41c b63d a216 953d b67d 1f3e
000001a0: 422d 1d3e 38d2 863d 947a 423e df58 00be
000001b0: 98f6 f93d 2e5d 6e3d cfa7 543e cbcd a9bd
000001c0: 3c2e 06be 5b17 2f3e 98dc 05be 44a9 103e
000001d0: 433c 6abe 4ad1 463e 2e05 32be 7d70 3b3e
000001e0: f01b fcbd 4911 7e3d 92b3 193e d1c4 093e
000001f0: a3e5 0abc af44 46be 588e 233e 6432 61be
00000200: 6342 64be c59e c8bd bdd7 143d c7a0 9d3d
00000210: 8dfb f03d 5376 9fbd 3b73 1ebe 86f4 043e
00000220: f7df 9fbd 0990 32be 3f7f f53c 074f 0fbe
00000230: 076e 6fbe bb08 47be 01ce 29be 43c7 033e
00000240: 2289 233e b3ce 8e3d 0cb2 b8bd a051 083e
00000250: 533d 15be 0109 e93c d05b 293e 299c 273d
00000260: bf0e 6ebd bc9f 6e3e 5cfd 823e be5a 193e
00000270: 2fb5 d33d 72c1 5abe 2681 343e 917c 02bd
00000280: 5c0d 11bc 335a ddbd da38 b9bd 315c 683d
00000290: 7f85 613e f24a 46be 2f55 7c3e 2340 123e
000002a0: e1b3 903d 5216 1e3e 00ca a53d efa0 943c
000002b0: 33be da3d 0ec9 00be fd07 813d 9087 813c
000002c0: 4035 803d 8b33 423e b06f 9e3d 0b51 6ebe
000002d0: 68d5 cabd 36a1 293d 37d1 3ebe 5090 ed3d
000002e0: 62ed 37be 60c0 81bd 0513 4dbe b607 773e
000002f0: 4d0b b83d 0c03 ba3d 04da aebd 0926 6bbd
00000300: 7ded 4e3d 9286 2cbe a485 86bd 965d 42be
00000310: 928d 4b3e 7ddc 203e 1861 f1bd 52fc c1bd
00000320: 3180 73be 0bb5 7f3d 4905 a1bd b5ec 12be
00000330: 98b0 22be 13df 4d3e a21a 223e 1246 d4bd
00000340: 66c3 5fbe 218b 7f3e 29dc 48be 8af6 c23d
00000350: e5ad 1dbd acc1 bebc 01c7 433e 5b5d 543e
00000360: afe2 f43d 2659 a43d de4c 5e3e 08dd 5ebd
00000370: ff68 c93d 39e5 a6bd 00fe f5bd d297 15bd
00000380: 6dd7 743c 2e85 383e c448 5a3c 9d75 db3b
00000390: a4cc c53d f5a1 763e e6ad 81bd 8c98 673e
000003a0: 77cf 8e3d e3bb 13be 479c 063e 8357 943d
000003b0: ce73 9fbd c0cf 093d b9ee 62be 168b 3f3e
000003c0: 81b6 2cbe 40b2 26be 99cc 22be f0f5 173e
000003d0: a866 583e ee9d 6a3d 6f15 adbd f6a5 9abd
000003e0: d681 96bc caaa d63d a4c4 5b3e 70f0 013e
000003f0: 0b23 d83d 1bb2 14be 85ef 32be 686a 443e
-0.105735645 -0.106768906 -0.14261276 0.11595653 -0.17994785 -0.00879584 -0.013113502 -0.05492381
-0.10612522 -0.11528265 -0.1696413 0.22274466 0.0029600395 -0.18245883 0.1414206 0.13986702
0.14151157 0.14160047 0.082703695 -0.101819836 0.19378224 -0.1828588 0.09406101 -0.2500084
-0.075741045 -0.05057276 -0.1457076 0.25450638 0.21740453 0.059297077 -0.12069191 0.0105488235
-0.23562978 -0.13038409 -0.039391518 -0.2600176 0.2909491 0.0008272623 0.08525508 0.09975505
-0.08707155 -0.093102254 0.09358641 -0.066001825 0.11953436 -0.14577112 0.2001089 -0.15514338
0.014928333 -0.0027518533 -0.01605878 0.10925678 0.1845174 -0.025392927 0.17343172 -0.09618225
0.0074333986 0.18538684 -0.09753392 0.23000987 0.12096846 0.096688405 0.18292646 -0.130541
-0.111797355 -0.16763428 -0.1058172 -0.07370793 -0.044721503 -0.21721779 -0.14868994 0.17197181
-0.096803464 -0.17981163 -0.061050504 -0.1350382 0.2154051 0.104742706 0.16423504 0.026250623
0.013350669 -0.06924068 0.00026901165 -0.18578206 0.24690244 -0.16677958 0.18298495 0.09370556
-0.14800529 0.22933011 0.1889696 -0.056974698 -0.041228544 -0.08801055 -0.16097191 -0.17478168
0.14719322 -0.1148984 -0.19006813 -0.12158114 -0.085424624 0.08892241 0.072797075 0.15575299
0.15349296 0.06583065 0.18992072 -0.12533902 0.12205237 0.05819433 0.20767139 -0.08291205
-0.13103575 0.17098753 -0.13072431 0.1412707 -0.2287455 0.19415775 -0.17384788 0.1830463
-0.12310016 0.062028203 0.15009907 0.13453986 -0.008477601 -0.19362138 0.15972269 -0.21991879
-0.2229095 -0.09795908 0.036338557 0.076966815 0.117667295 -0.077862404 -0.15473644 0.12983903
-0.0780639 -0.17437758 0.029967902 -0.1399499 -0.23381816 -0.19436924 -0.1658249 0.12868981
0.15970281 0.069730185 -0.09018335 0.13312387 -0.14574175 0.028446676 0.1653893 0.04092041
-0.05811953 0.23303121 0.25583923 0.14976022 0.103372924 -0.21362856 0.17627391 -0.031857077
-0.008853283 -0.1080822 -0.09044047 0.056728546 0.22023581 -0.19364527 0.2464187 0.14282279
0.07065559 0.15438202 0.08095169 0.018143145 0.10680809 -0.12576696 0.06300352 0.015811712
0.06260157 0.18964975 0.077361465 -0.23273103 -0.09903985 0.04141351 -0.18634497 0.11599791
-0.17961648 -0.06335521 -0.20026787 0.24124035 0.089865305 0.090826124 -0.08537677 -0.05740932
0.050519455 -0.1684821 -0.06568459 -0.18981013 0.19878224 0.1570911 -0.11786097 -0.094719544
-0.2377937 0.062428515 -0.07862336 -0.14348109 -0.15887678 0.20104627 0.15830472 -0.10364927
-0.21851882 0.24955417 -0.19615234 0.0951968 -0.038495917 -0.02328571 0.19118883 0.20738737
0.11957299 0.08024816 0.2170901 -0.05441001 0.098344795 -0.081491895 -0.12011337 -0.03652174
0.01494394 0.18019554 0.013323013 0.00669737 0.09658173 0.24085219 -0.063319966 0.22616786
0.069731645 -0.14427142 0.13145553 0.07243254 -0.0778576 0.03364539 -0.22161378 0.18705401
-0.16866495 -0.16278934 -0.1589836 0.14839911 0.2113291 0.05727952 -0.08451354 -0.07551186
-0.018372457 0.10481794 0.21461731 0.12689376 0.10553559 -0.14521067 -0.17474182 0.19181216

weight f4 [12, 50]
00000000: 9e47 743a 698e 0f3a 56f8 893a 5bfe 86ba
00000010: dba6 18ba edb8 9939 56ce 273a dd04 21b8
00000020: 1290 f039 ec86 2d3b 6396 e138 a0e1 ae3a
00000030: 6429 4a3a e4ef 4439 593c 21ba 51ca 66b8
00000040: 0eb5 82ba 280a 78ba 95a6 c8b8 bd34 86b7
00000050: 7c57 16ba 3a08 ac38 1b26 9839 691c 2aba
00000060: 7ac2 8bba 5eb4 af39 2b65 a03a b349 21ba
00000070: 6f04 abb9 fab5 84ba 39d4 9238 c7a6 a6b9
00000080: 1736 47b9 0db6 60ba 1e79 9e37 8db4 4aba
00000090: 415a b5b9 a177 79ba 1303 be39 4ccf b3ba
000000a0: 9fd2 8538 14c9 1dba fb48 9eba e68a 133a
000000b0: d8f5 2139 302f c639 c913 f1b8 9344 6d39
000000c0: 2e9b 7d3a e223 d9b9 1d38 92bf 07e2 8b3f
000000d0: fc20 81bf 710a b13f c159 9f3f 4a4c 97bf
000000e0: 7d8b 86bf eff5 ab3f 75bf a7bf c8cb 7e3f
000000f0: ec5e 903f b881 533f cd22 a73f 3ff8 b23f
00000100: 78f1 953f f2ac a43f ab69 9c3f ed6c afbf
00000110: 7073 813f a43c a9bf e35c a5bf 5deb a13f
00000120: d894 96bf 9483 acbf e729 8c3f 45d5 9ebf
00000130: 3aa7 933f e20f b33f 1f20 b33f ca40 93bf
00000140: 2127 4ebf f5f5 7fbf a739 a9bf bbe0 6e3f
00000150: e73c 9ebf b3d0 a83f 9673 613f 0e4c b13f
00000160: e64e 683f b4e2 a53f 6413 653f 517c a03f
00000170: 486f 873f 35e4 8dbf df95 aabf f8dd a2bf
00000180: 8f5a a43f 8182 a4bf 737c a43f 3e7d 3fbf
00000190: cc0c 9abf 9740 863f 7b2f 64bf 39e1 a83f
000001a0: eb51 933f 9cca 82bf 749d 83bf b6c9 9e3f
000001b0: ca3c abbf 7963 9e3f 5156 3c3e c015 963f
000001c0: 4645 913f 1b15 b03f dc2f 5ebd 5a2e 783f
000001d0: def3 803f 260e 9ebf 676f 343f 2154 99bf
000001e0: 0a83 7abf 738c 7c3f 4f89 d6bd b1cf 8dbf
000001f0: ec78 633f 9d11 87bf cc8d 9f3f a14e 6c3f
00000200: 37bd 9a3f 8541 97bf e585 c6be 0d3c 78bf
00000210: 6c61 62bf deaa 88be 15b2 92bf d6a7 953f
00000220: 00cf 903e 7c35 a53f 5378 7ebb 4804 963f
00000230: e7a1 0fbf e6e2 a23f 9277 943f 8dd3 073e
00000240: 981e 98bf 7696 9abf 4695 9a3f 20b9 96bf
00000250: 372e 7f3f ff77 6ebf 167e 28bf 5cfa 47bf
00000260: 69a0 823f fb1d 96bf e2d3 4a3f 9984 8ebf
00000270: 7a88 973f bdf1 c1bd fe30 96bf 57ca 8cbf
00000280: f7a6 9b3f d460 933f 2d04 853f 09ae 4bbf
00000290: 2b26 9a3f 49a2 963f 76d3 9ebf a1a6 67bf
000002a0: cc0d a23f 195d 3e3f 1f5a 7dbf ed71 8a3f
000002b0: b133 92bf f344 653f 4ba7 a1bf d886 8c3f
000002c0: e30a 7a3f 3da6 5fbf 1926 8ebf 69d6 febc
000002d0: 4544 56bf fec7 94bf adcb acbf ba11 8ebf
000002e0: bcf3 203f c591 40bf bd18 74bf 68ae 6a3f
000002f0: 0a1f a2bf beae 4b3f c5bb 89bf e653 953f
00000300: 14e0 033f 363b 2cbf 4e6c 36be 74a9 8b3f
00000310: de42 5b3f 0851 883f 69c7 b23e 72e0 8bbf
00000320: 03fc a4bf 072f 62bf 2dd0 8a3f f353 35bf
00000330: 368a b6be 4c40 9ebe 40f9 823d 5708 ac3e
00000340: 8bf0 82be fd8d 2cbe f4ce 633e 7f21 8cbe
00000350: cf7b cdbe c24e 143f a62f 4ebf e0f4 0bbb
00000360: 64f9 8f3d ad75 3e3f 36c6 d43d 3bca afbe
00000370: 00fc b03e 6e6b 1abe f0ee c23d 81d0 c2be
00000380: 47c8 b73e 9c51 02bd 3c87 2c3d 765a 033f
00000390: c464 00bd edbb 173f 1d08 aa3f ceea 253f
000003a0: dbd3 433d bb18 8cbf 11ae 02be c088 a1be
000003b0: 3a02 c23e d2fe 1f3f da21 9dbe dc48 ac3f
000003c0: 9d76 67bf 2d82 15bf 005a 183f 63d5 e23e
000003d0: c843 c63e f116 31bf 1582 933e 8132 6c3d
000003e0: 07d2 7fbf 4feb e93e f4f8 123f b670 063f
000003f0: 39c8 9cbf e91f 803f d15a 723f b235 a3bf
0.0009318533 0.0005476238 0.001052628 -0.0010299193 -0.0005823203 0.00029320215 0.0006401291 -3.838992e-05
0.00045883708 0.0026478125 0.00010756848 0.0013342388 0.0007711856 0.00018781383 -0.0006150655 -5.5024695e-05
-0.0009972171 -0.00094619626 -9.5677715e-05 -1.5998603e-05 -0.0005735082 8.2031314e-05 0.0002902009 -0.0006489219
-0.0010662817 0.00033512985 0.0012237182 -0.00061526446 -0.00032618965 -0.0010125034 7.001352e-05 -0.00031786246
-0.00018998269 -0.00085720496 1.8891467e-05 -0.00077325926 -0.00034590255 -0.0009516422 0.00036241914 -0.0013718395
6.3811654e-05 -0.00060190377 -0.0012076193 0.00056283025 0.0001544574 0.0003780066 -0.00011495461 0.00022627627
0.00096743077 -0.000414162 -1.1423374 1.0928353 -1.0088191 1.3831311 1.2449266 -1.1820157
-1.0511318 1.3434428 -1.3105303 0.99529696 1.1278968 0.8261981 1.3057495 1.3982009
1.1714315 1.2865279 1.2219747 -1.3705117 1.0113354 -1.3221631 -1.2918972 1.2649952
-1.1764174 -1.3477654 1.0950288 -1.2408835 1.1535408 1.3989222 1.3994178 -1.1504147
-0.80528456 -0.99984676 -1.3220719 0.9331166 -1.2362336 1.318869 0.88066995 1.3851335
0.9074539 1.2959809 0.8948271 1.2537938 1.0580835 -1.1085268 -1.3326987 -1.272399
1.2840136 -1.2852327 1.2850479 -0.7480048 -1.2035155 1.0488461 -0.8913495 1.3193733
1.1509374 -1.0218081 -1.0282426 1.2405307 -1.3377926 1.2374107 0.18392302 1.1725388
1.1349266 1.3756441 -0.05424486 0.96945727 1.0074422 -1.2348068 0.70482486 -1.1978799
-0.978562 0.9865181 -0.10475408 -1.1079007 0.8885639 -1.055225 1.2465148 0.9230748
1.2088994 -1.181687 -0.38774028 -0.9696663 -0.88429904 -0.2669286 -1.1460596 1.1691844
0.28282928 1.2906947 -0.0038829043 1.1720057 -0.5610642 1.2725494 1.159899 0.13264294
-1.1884336 -1.2077167 1.2076805 -1.1775246 0.99679893 -0.9315185 -0.6581739 -0.78116393
1.0205203 -1.1727899 0.7922956 -1.1134216 1.1838524 -0.09469936 -1.1733701 -1.0999249
1.2160329 1.1513925 1.0391899 -0.7956243 1.2042898 1.1768275 -1.2408283 -0.9048863
1.266046 0.74360806 -0.9896564 1.0816017 -1.1422025 0.89558333 -1.2629179 1.0978651
0.9767286 -0.87363034 -1.1105376 -0.031108098 -0.8369792 -1.1623533 -1.3499657 -1.109916
0.6287191 -0.75222427 -0.9535025 0.9167237 -1.2665722 0.7956351 -1.0760428 1.1666229
0.5151379 -0.6727785 -0.17814752 1.0911088 0.85648906 1.0649729 0.34917763 -1.092787
-1.2889408 -0.8835301 1.084478 -0.7083122 -0.35652322 -0.3090843 0.06395197 0.33600113
-0.25574145 -0.16851039 0.22246915 -0.27369305 -0.4013352 0.57932675 -0.80541456 -0.0021355674
0.07029989 0.7439831 0.10389368 -0.34333977 0.3456726 -0.15080044 0.0951823 -0.380497
0.35894987 -0.03181611 0.042121157 0.5130991 -0.031346098 0.59271127 1.3283726 0.6481141
0.047809463 -1.0945047 -0.12761714 -0.31549644 0.37892324 0.624982 -0.3068989 1.3459735
-0.90415365 -0.5840176 0.5951233 0.44303426 0.38723588 -0.6917563 0.28810182 0.05766535
-0.9992985 0.4568734 0.5741112 0.52515733 -1.2248603 1.0009738 0.94669825 -1.2750762
