models/transh_model/trained_model.pkl (torch, 601183 bytes, 3 tensors)

weight f4 [2943, 50]
00000000: 966d a53d 0b11 063e 3c6a f1bd 2bc2 a83e
00000010: 7ef9 563d 9d6a 2bbd 1927 fb3d ce6e d63c
00000020: e127 973d 7598 1dba e9d6 003d 5597 ee3c
00000030: 254c 2a3d 2db5 bbbd f79d c0bd ff9b dbbd
00000040: 44b3 ce3d 06ff d0bc 60e1 863d f02a d7bc
00000050: eed1 243e e481 14bd e355 d13d 1d49 b63d
00000060: 865a 063e 86af b03a 0144 a8bd f779 29be
00000070: 51b3 fcbc 29e2 cfbd ef97 05be 3643 a0bc
00000080: e699 2dbd 9a96 7c3d ba83 bfbc 0ab8 b73d
00000090: 619c 4a3d 2a12 8dbc 538d f33d 5edb 81bb
000000a0: 6018 9f3d 9c23 803e 2543 7d3c da36 2a3e
000000b0: b510 e3bc 5783 b7bd b242 a9bd 2cea 773d
000000c0: 4351 2c3e 964f 803d 81c5 1b3e 4009 2e3d
000000d0: a925 bdbd d612 1d3d 80d6 943e 1096 36bd
000000e0: 2932 a33d 7fb9 0f3e 5506 62bd a3ee 75bd
000000f0: e426 34bb 26c2 a3bd cecc cc3c 21f6 87bd
00000100: bfab a53d e8a0 c9bc cbe2 ac3d 5e1f 76be
00000110: cfbc 3cbc cdcf 19bc 4e21 0d3e d958 e5bd
00000120: 397b d33d a100 bd3d 17ec 393e ec42 973d
00000130: 9a6c ae3d 2598 183c 5689 803d d686 89bd
00000140: 7382 2b3d 6520 8d3d b069 3fbc 5d6e 1e3d
00000150: 9f6c 113d 5c29 333e 1c9a 79bc 1c35 a23c
00000160: fd59 ba3d a539 1bbd 80b1 8a3d 4317 53bc
00000170: 827c 83bd 15da dc3d 3d63 2dbe 658d 853d
00000180: 6f7a d0bd 90f6 203c 11b1 0b3c 8171 92bc
00000190: b8c2 3c3e 8de3 033e ca70 c13d b146 203d
000001a0: 274f de3d 7b82 233e ad07 2dbd 031f 16bd
000001b0: 85ca 693e 70ca 823c 9b9b f7bd b4c6 ba3d
000001c0: 8ff3 b53d bf50 df3d 6add 953d 8536 853d
000001d0: 8235 b8bd e6c4 ae3d 6879 37be a8d7 79bd
000001e0: fb5c d43d a5ed 10be b42e ecbd b131 a4bd
000001f0: acb7 a4bd c1e4 83bd 3b5d c63d d9c3 bd3d
00000200: 0fde d6bd 1cda 363d cf0e fdbd 8e4f 6b3e
00000210: 6739 4c3d 4cc0 373d 8fea ac3d 216d 9bbc
00000220: 27b8 dfbd 43f4 5a3e 2b63 94bd beb1 d0bd
00000230: 96b3 07bd c6c4 79bd 808b c73d b673 833c
00000240: d2a3 9b3d b4a0 883d 47d9 083d 27d8 d2bd
00000250: 9e2c 0bbe fcc6 3abd a3a8 223e ba94 293e
00000260: 267a e6bd fab2 113e 292f d2bc 0067 67bd
00000270: 232f de3c 8d8b 6739 3c3c b43d c355 143e
00000280: ec65 92bd 658b 48bd 2e32 303d aef0 7cbd
00000290: aa66 e0bc ee95 d6bd b832 8a3d 4ef0 7dbd
000002a0: f8ab 8dbd 070a 773c fe96 683e 6e5c 71bc
000002b0: 76bf 053e cf92 eb3d 1860 013e c581 893d
000002c0: 886f 91bd 2f48 dfbc 3828 5abd 9c55 c6bd
000002d0: 9b5c 2d3e b6e0 ef3d 3fdb e6bd cafe 303e
000002e0: fd77 ad3d c883 b93d 5838 00bc 71e5 cd3d
000002f0: 307b c63d 0d7f 913d 9078 be3d 4a3c 023e
00000300: 1b18 ccbc 2e45 fe3d 152b 7d3d 10fe 4abe
00000310: 2abf 17be 631f 443d 9e72 dcbd db50 353e
00000320: 4902 d53d a447 1e3e 6502 74bd a491 1d3e
00000330: 255c 343e ed68 4dbd 28f9 d53d e2cc e73d
00000340: 3cb7 ad3d 0de5 cc3d 32dd fabc fa3d 63bd
00000350: ac0a 893e 0852 493c b95a 1ebc 8474 afbd
00000360: 0a15 db3c e2e1 1bbd 5a05 c5bb cb48 0b3d
00000370: 6f39 7b3d 9aa0 9ebd 36e3 a43b c635 ab3d
00000380: fecd 933d f90b 12bd 853a d43c 608c 73bd
00000390: 91ac 983b 60c0 14bd d2a4 03be cfd3 6d3c
000003a0: fc81 393d 0d8a c2bd 2f56 d43c b9b7 1b3e
000003b0: b2af 35bd e030 1e3e 0923 943d d92a 9ebc
000003c0: abcb 073d 6f7c 693d 6dbf 3dbd 192d c83d
000003d0: a7bc 14bd 9cbf 68bd fb05 c4bd 7cb6 c53c
000003e0: a06d f6bd 1d0a 983d c8b9 49bd f766 fd3d
000003f0: c2fa b7bd 6823 a13e c12e 0b3e 7342 c5bc
0.080775425 0.13092439 -0.11787841 0.32960638 0.052484028 -0.04184972 0.12263317 0.026175883
0.07380653 -0.00060117926 0.031454954 0.029124895 0.041576523 -0.09165416 -0.094051294 -0.10723113
0.10092786 -0.02551223 0.065859556 -0.026265591 0.16095707 -0.036256686 0.1022146 0.08900664
0.1312047 0.0013480044 -0.08216096 -0.16550432 -0.030847223 -0.101505585 -0.1304624 -0.019563299
-0.042383097 0.061667062 -0.023378242 0.089706495 0.04946554 -0.017220575 0.1189219 -0.003962918
0.07768321 0.25027168 0.015457903 0.16622487 -0.027717927 -0.08960598 -0.08264674 0.060526058
0.16827874 0.0626518 0.1521206 0.04248929 -0.09235699 0.03834804 0.290699 -0.044576705
0.07968552 0.14035605 -0.05518182 -0.060042035 -0.0027489 -0.07996015 0.025000002 -0.06638742
0.080893986 -0.024612859 0.08441695 -0.24035403 -0.011519625 -0.0093879225 0.13782236 -0.11198587
0.10326237 0.092286356 0.18156467 0.07385811 0.08516808 0.009313618 0.06276195 -0.06715171
0.041872453 0.068909444 -0.011682913 0.03867947 0.03550398 0.17496246 -0.015234496 0.019800715
0.09099195 -0.03789677 0.06772137 -0.012883964 -0.06420232 0.10783783 -0.16932388 0.065211095
-0.10179602 0.00982441 0.008526103 -0.017876389 0.18433654 0.12879772 0.09445341 0.039129917
0.10854941 0.15967743 -0.04224365 -0.03665067 0.22831161 0.01596567 -0.12090226 0.09119931
0.08884346 0.10904073 0.07317622 0.065045394 -0.08994581 0.08533649 -0.17917407 -0.06099668
0.10369297 -0.14153154 -0.115323454 -0.080172904 -0.08042845 -0.06440116 0.09685751 0.092658706
-0.10491573 0.0446416 -0.1235634 0.22979566 0.04985943 0.044861123 0.08443176 -0.018972935
-0.10923796 0.21382241 -0.07245477 -0.10190152 -0.03313025 -0.060978673 0.097434044 0.016046386
0.075996056 0.06671277 0.033410337 -0.10295134 -0.13591239 -0.045599923 0.15884642 0.16560641
-0.11253767 0.1422843 -0.025657253 -0.056494713 0.027122086 0.00022081863 0.08800551 0.1448584
-0.07148346 -0.048961062 0.043016605 -0.061752968 -0.027392704 -0.104778156 0.06747955 -0.06199675
-0.06917566 0.015078074 0.22713849 -0.01473151 0.13061318 0.11502611 0.12634313 0.06714205
-0.07101351 -0.0272561 -0.05326101 -0.096842974 0.16929857 0.11712782 -0.112722866 0.17284694
0.084701516 0.090583384 -0.007825933 0.10053528 0.09691465 0.07104311 0.09300339 0.12718311
-0.024913838 0.12415539 0.061808664 -0.1982348 -0.14819017 0.047881495 -0.10764049 0.17706625
0.104008265 0.15457016 -0.059572596 0.15387589 0.17613275 -0.050148893 0.104479134 0.11318375
0.08482215 0.100046255 -0.030623052 -0.055479027 0.26765954 0.012287624 -0.009665185 -0.085671455
0.02674343 -0.038057216 -0.006012601 0.034004968 0.06133407 -0.07745476 0.0050319685 0.08359866
0.07217024 -0.03565595 0.02590681 -0.059460044 0.0046592434 -0.036316276 -0.12855843 0.014515831
0.04528998 -0.09498987 0.025920002 0.15206803 -0.04435701 0.15448332 0.07233245 -0.01930754
0.033153217 0.057003435 -0.046325136 0.09774227 -0.036312725 -0.056823358 -0.09571453 0.024134867
-0.12032628 0.07423804 -0.04924944 0.123731546 -0.08983375 0.31472325 0.13592054 -0.024079537

weight f4 [12, 50]
00000000: 3d5f 72be 0253 3abe 4ead 80be 73c4 5c3e
00000010: 67fa 183f 2203 9b3e b316 d4bc 6534 753e
00000020: 55e5 04bf dbc9 e53e 1cbf e0be e5e9 e8be
00000030: 067e debe 0984 a83e fc94 253e 92c5 df3d
00000040: ee8d f63e f7a0 b1be 1e41 27bf 5a48 1f3f
00000050: 51d1 383f e0a1 aebd 4abf 963d cfd6 44be
00000060: a189 f93e 3476 1abf b948 103f 520b a4be
00000070: 8d92 81be b20a 1c3e c115 fb3e 53b2 d73e
00000080: 35ba cd3e 3ef0 4f3f 0d98 253f c619 13bf
00000090: bc85 85be 957e dabd 5e2c 583e c770 ffbe
000000a0: 588c 1e3f 426e cd3e c803 3e3f 0658 323f
000000b0: 87eb 0c3f 324e 43bf a6e8 27be 5592 8ebe
000000c0: ac6a 63bf 1864 ea3e cb1f 5abe e8f7 aabe
000000d0: 0cb8 debe 7efd 3f3d 6d87 753d c3d8 16bf
000000e0: 5764 e53e eb06 8b3e fe12 a7bc 216f cdbc
000000f0: 3852 203f cbc0 0dbf 22e2 96be 660e 88bf
00000100: fae3 efbd b560 09bf 5fd2 9b3f c3bb a2bf
00000110: aed4 a03e 2ed8 033f f05e 643c d256 ad3e
00000120: 9d5c 443f 33f7 933f 20a7 543f 51e6 ae3e
00000130: 646c 02bf 9449 04bf 54eb a53e f633 93bf
00000140: a58b 613d 49b8 28be e3ff 47be 970d 10bd
00000150: 3478 73be 6d76 2f3e 174a 053f 8d96 62be
00000160: e229 3a3f 2273 5f3f 5adb ff3e 41b0 c23e
00000170: f92e 36bf 5bcf 3b3e e4f6 53be 08f5 1abe
00000180: d5f6 03bf 0197 3e3f 8b32 383e 7109 923e
00000190: be66 2b3f 14f5 333f 1ab0 8abe 5647 0c3f
000001a0: 4ec9 cdbe 94c1 a03e 1475 14bf 80ea 833e
000001b0: 35e3 e13e 32b7 1abf a871 613d d2a6 153f
000001c0: f872 b63d b990 7fbe 5fe4 a13d e657 04be
000001d0: d3d4 51bf fde1 323e 8fd4 febe 7aff bdbe
000001e0: 8fcf 88bd 9530 34bf ad7e 0abf 542f f03d
000001f0: 576f 0dbf ddd6 42bc 1644 0c3f 9f19 9b3e
00000200: 4e01 1dbe d843 8b3f de02 8cbf f5d6 303f
00000210: fc76 52bf 0b83 7abe a951 c4be eba7 653e
00000220: 6459 51be 5403 d63d 4cd4 a53e c347 c5be
00000230: bf95 98be a3f7 83be 74a8 6b3f 16d3 bebd
00000240: 01ea dfbd 4ace debc d2d3 e8be d76c 763d
00000250: 09de 993e efa7 403d 636d db3d 6791 74bd
00000260: 3a1b 1bbe 0751 0d3e 87c5 9a3d 814d a83e
00000270: 0849 18be 5304 093d 63f4 0dbe 0967 993c
00000280: ffe7 443e bf1f 5f3e 2ab8 b0bd d124 92bd
00000290: 9245 a33c 60a6 1b3d 758c 673d 7331 053e
000002a0: 9da4 b3bd b3c4 0bbe efb0 d4bd 7926 323e
000002b0: 9957 683e 14e5 453e 35b7 633e dc23 ea3d
000002c0: 98b4 cabc b049 c63d 6162 02bd 718c e1bd
000002d0: 1ac0 2e3e 200f 79bd 9af0 1bbe 9c76 a03e
000002e0: 388e 20be 4652 cf3c d5c4 a63c 8101 7dbd
000002f0: 02bf bcbd 1637 e3bd 2181 d63d 0962 4c3d
00000300: b6c0 71be f225 95bd 9b14 183e c81f 613d
00000310: dd90 493e 7bfa 5e3e ec3d d6bd 159d 0a3e
00000320: 1725 c9bd c9d8 f8bd 2b3a 83bd 4476 70bd
00000330: 0ee7 9b3d 2900 e1bd 044f 193e 451b c83d
00000340: 4263 8fbd 165b af3b 97fa 023e b698 80be
00000350: 1743 edbd 99c5 6fbe 595b 213d fff8 dcbd
00000360: 430f 7c3e 02c2 88be 14f8 f13d 3e24 273e
00000370: b990 bc3d 1307 013e af12 ed3d 24f6 723e
00000380: 332e 3a3e 1a65 143e a57c 24be 0bf4 0ebe
00000390: c983 843d 6c79 92be 9bbb 123e 3150 023c
000003a0: 1eff 40bd a0a4 913d 7df2 c8bc 9306 24bc
000003b0: 19e0 533e 86fc 94bd d1d2 0a3e c236 723e
000003c0: 42e0 1d3e de4a 233e 0686 15be 06ff b83b
000003d0: 1b38 2dbd a738 8ebd 916a f6bd 94eb 203e
000003e0: 29e0 a13c dfb0 353e 49ab a6bc fe63 19be
000003f0: a3c7 dabd 49b2 9ebe d895 3ebe f600 e83b
-0.23669143 -0.18195727 -0.2513222 0.21559314 0.59757084 0.30275828 -0.02588973 0.23945768
-0.5191243 0.44880566 -0.43895805 -0.45490947 -0.43455523 0.32913235 0.16170114 0.109263554
0.4815516 -0.3469312 -0.65333736 0.62219775 0.7219439 -0.08526969 0.07360704 -0.19222568
0.48737815 -0.60336614 0.56360966 -0.32039887 -0.25307122 0.15238455 0.49040034 0.42128238
0.40181127 0.81225955 0.64685136 -0.574612 -0.26078594 -0.10668675 0.21110675 -0.4989073
0.619329 0.40123183 0.7422452 0.69665563 0.55046886 -0.7629119 -0.16397342 -0.27846017
-0.88834643 0.4577949 -0.2130119 -0.33392262 -0.43499792 0.04687261 0.059943605 -0.589245
0.44803116 0.27153715 -0.020394798 -0.025077404 0.62625456 -0.55372304 -0.294694 -1.0629394
-0.11713405 -0.5366319 1.2173575 -1.271355 0.31412262 0.5150174 0.0139386505 0.338553
0.76703817 1.1559814 0.8306751 0.34160092 -0.5094664 -0.5167477 0.32406104 -1.1500232
0.055064816 -0.16476549 -0.19531207 -0.03516921 -0.23776323 0.1713502 0.5206618 -0.22127743
0.7272016 0.87285054 0.4997204 0.38025096 -0.71165425 0.18340819 -0.2069965 -0.15132535
-0.5154851 0.74449164 0.1798803 0.28522828 0.6695365 0.70295835 -0.2708748 0.5479635
-0.40192646 0.31397688 -0.5799115 0.25764847 0.44118658 -0.60435784 0.05504003 0.5845767
0.08908647 -0.24957551 0.079048865 -0.12924156 -0.8196537 0.1746902 -0.49771544 -0.37108976
-0.06680214 -0.7038663 -0.5409954 0.11727777 -0.55248016 -0.011892048 0.5479139 0.30292985
-0.15332529 1.0880079 -1.0938375 0.69078 -0.82212806 -0.24464051 -0.38343552 0.22427337
-0.20444256 0.104498535 0.32388532 -0.38531312 -0.29801747 -0.2577487 0.92053914 -0.09317605
-0.109333046 -0.027197976 -0.45474106 0.06016239 0.30052212 0.047035154 0.10714223 -0.05970898
-0.15147105 0.1380044 0.075572066 0.3287163 -0.14871609 0.03345139 -0.13862757 0.018725889
0.19229124 0.21789454 -0.086288765 -0.071359284 0.019930635 0.038000464 0.056530435 0.13007145
-0.08771632 -0.13649254 -0.1038531 0.17397489 0.22689666 0.19325668 0.22237857 0.11432621
-0.024744317 0.096820235 -0.031832103 -0.11013115 0.17065468 -0.06080544 -0.15228501 0.31340492
-0.15679252 0.025307786 0.020357529 -0.061769012 -0.09216119 -0.11094491 0.10473848 0.04989818
-0.2360867 -0.07282628 0.1485161 0.05496195 0.19684167 0.21775238 -0.104610294 0.13536485
-0.098215275 -0.121507235 -0.06407579 -0.058706537 0.076124296 -0.10986359 0.14971548 0.09770826
-0.07001354 0.0053514345 0.12790905 -0.2511651 -0.11585062 -0.23415221 0.039393757 -0.1078968
0.24615197 -0.26710516 0.11814895 0.16322419 0.09207291 0.12600355 0.11575829 0.23726708
0.18181686 0.14491692 -0.16063173 -0.13960283 0.064704485 -0.28608263 0.14329378 0.007953689
-0.0471183 0.07111478 -0.02452969 -0.010011333 0.20690955 -0.072747275 0.13556983 0.23653701
0.15417579 0.15946528 -0.14601907 0.0056456355 -0.042289834 -0.06944399 -0.12032045 0.15714866
0.019760208 0.17743252 -0.020345347 -0.1497955 -0.10682609 -0.30995396 -0.18611848 0.0070801927

weight f4 [12, 50]
00000000: 0d15 b23c 64f9 d93d 545e f73d 6ae4 24be
00000010: 5867 2abe 2bd6 22bd 96f0 a9bd d997 2bbe
00000020: 7ee6 093d 3cbc a03d fd0e 3a3c 66ba 17be
00000030: 8f01 833b c986 adbd bdca 583d a1b8 7e3d
00000040: a7f9 cfbd 155b bf3c 2e56 5fbd a3ee 2bbc
00000050: d781 353d 133b 95bc da6c 3ebe 5862 9a3d
00000060: bea9 09be 2e37 9c3d 4cb7 a5bd 8e5a 66bb
00000070: 93c0 2bbe e72c b2be ccb4 a83e aae9 753e
00000080: fbe9 30be 9dae 943d f4a7 87bd 57b1 083e
00000090: 1ab8 f73d 8146 eabc a40e 943e 9096 d63d
000000a0: 2803 703b 03ee 3e3d 2ce3 253d dadc bbbc
000000b0: 324a 943d 37e3 d5bc 84d1 dd3d d74c 593e
000000c0: 6447 e6bc b86f e63e fd0c 2e3e c750 013e
000000d0: 1946 1dbe 7faa 4f3e fb5b 493e 271b 103e
000000e0: 98da 263e 3003 b33d f8d5 453e e6b5 2c3e
000000f0: 76a8 17be 6983 05be e20e 033e bee7 c43d
00000100: 7b86 31be ac6a d3bd 8a6d 903d 07cf bcbd
00000110: 9f3d 30be a947 cebc dbb6 4e3e 1a1b 33be
00000120: c649 653d b33d 54bd 07ba b93d f522 09be
00000130: f444 983d 6974 08be de1f 00be 4815 8dbd
00000140: 2ce7 d23d d440 273e d1a8 b33d 7e8f 2c3e
00000150: ed3a 313e 87c4 203d 487e 20be 5c54 493e
00000160: 6d99 cb3d c328 07be f4a1 173e 0787 303e
00000170: 0881 c83d 45b0 443e 95eb 1a3e 9143 19be
00000180: 08d4 24be f510 e0bd 239b 35be 36e9 2a3e
00000190: 2d74 3b3e 789a e23d 0469 e4bd 0000 313e
000001a0: 43a8 4f3e a982 e43d 75bb 413e e1a2 f93d
000001b0: f5e5 293e a696 333e 29d1 13be c14d f3bd
000001c0: 27c5 9b3d 9623 053e 2972 3bbe b264 e5bc
000001d0: f2f0 853d 4b6e 24be 6e97 48be d78d 4abd
000001e0: 2235 813e 9b3b 69be 8961 8a3d bc70 aabd
000001f0: 13a1 9f3d e77e 07be 79ab 373d e91b f5bd
00000200: 5998 86bd de31 c9bd 4c99 823d 2c77 da3d
00000210: 5f7b a53d dcd0 b13d a259 053e 300d 8b3c
00000220: 322a 47be 3430 673e 6d50 f23d 543e 31be
00000230: a6fd d53d 3168 613e ced3 e63c 1b62 7c3e
00000240: 87d6 2a3e d2b1 bbbd 2d82 19be 827d 9bbd
00000250: 4f95 0cbe 2b94 173e fac3 d03d 3121 7f3d
00000260: 1a8e 643d 8137 613e 2c13 133c 99ba f23d
00000270: fd75 91bd 2a5f 8c3c 5481 57be f0fe 5bbe
00000280: bdaf 70bd 73c5 03be c4c0 12be 7374 20be
00000290: d46e 333d f5f6 e6bd 10c2 0fbd a57b 883d
000002a0: 60fd 46be aa32 5e3e 6c36 33bc b9a0 773d
000002b0: b1e4 2dbe e3e7 ed3c ea6e 2bbd 6f5d 453e
000002c0: 281b 64be 0f9b aabd 33e2 5abe bcb3 193e
000002d0: cfd8 56be 891d a63d 0b7d 3ebe 03ba 6bbe
000002e0: e16e 44bd 82cc 7b3d 9df7 bebd dfad 5cbe
000002f0: 3512 9f3d 388a 0d3e a03a 533e 9140 3abe
00000300: 4e76 eebd 34eb 303e f631 1cbe 9120 573d
00000310: a679 363e 41cf c03d c8ed 403e bfb1 d8bd
00000320: f450 b8bd d55c 023e 6583 13bc 8bd7 393e
00000330: 15d9 503e 2cd4 363e 553d bbbd 64cc 303e
00000340: 5ebf fa3d 0ca6 4c3e d68e 47be 4dc9 4ebe
00000350: 753b 1d3e 6c87 453e 3c40 573d 95d9 09be
00000360: bc49 1c3e d90f b43d d85f 38be 7758 373e
00000370: a3e6 4a3e 54ed bbbd 8901 1bbe 7bb9 debd
00000380: 0f6b 293e d6fb 49be 32c4 553e 6b10 54be
00000390: 8ebd 033e 5729 36be 87e7 b1bd 27d5 293e
000003a0: 048e ffbd abf8 2fbd d5cf 77bd 10b2 43be
000003b0: 8f16 b0bd 0f38 e4bd 6198 fbbd f1c7 d93d
000003c0: 0d53 173c 290c 9fbd a51d fbbd 5942 0c3e
000003d0: 461b 2c3e 321e 933d ff07 ba3d e8aa ca3d
000003e0: c5e7 893d d30b 393d e32b 50be 6e1f 3a3e
000003f0: 06fc 2ebe 873c 23be a156 3bbe 66d8 36bd
0.021738553 0.106432706 0.120785385 -0.16102758 -0.16640985 -0.039755028 -0.08297841 -0.16757144
0.03366708 0.07848403 0.011356113 -0.14817199 0.0039979885 -0.08472974 0.05292772 0.062187795
-0.10155039 0.023358861 -0.054525547 -0.010493907 0.044313278 -0.018216645 -0.18596211 0.07538289
-0.13443658 0.07627712 -0.08091602 -0.003514919 -0.1677268 -0.34799883 0.32950437 0.24014917
-0.17276756 0.07259867 -0.066238314 0.133489 0.120956615 -0.028598072 0.2891742 0.10477936
0.0036622975 0.046613704 0.04049985 -0.022932459 0.07240714 -0.026109321 0.108309776 0.21220718
-0.028110214 0.4500711 0.16997142 0.1262847 -0.15358771 0.20279883 0.19663994 0.14072858
0.16294324 0.08740842 0.19319904 0.16866264 -0.14810356 -0.1303841 0.12798646 0.09614514
-0.17336456 -0.103230804 0.07052143 -0.09219175 -0.17211007 -0.025180655 0.20186941 -0.17490807
0.05597856 -0.051816653 0.09068685 -0.13392241 0.07435027 -0.13325657 -0.12512156 -0.06888825
0.10297999 0.16333324 0.087724335 0.16851613 0.17307635 0.039249923 -0.15673172 0.19661087
0.09941373 -0.13199143 0.14807874 0.17239009 0.09790236 0.19207866 0.1512893 -0.14967181
-0.16096509 -0.10940734 -0.17734961 0.16690525 0.18306036 0.11064619 -0.11152843 0.17285156
0.2027903 0.11157734 0.18919165 0.1218927 0.16591628 0.17537937 -0.14435257 -0.11880065
0.07605963 0.13001856 -0.18305267 -0.028002117 0.06540097 -0.16057698 -0.19589016 -0.049451675
0.2523585 -0.22776644 0.067568846 -0.083222836 0.07794394 -0.13232003 0.044841263 -0.11968214
-0.06572027 -0.098239645 0.06376895 0.106672615 0.08080172 0.08682415 0.13022473 0.016974062
-0.1944969 0.22576982 0.11831746 -0.17308933 0.1044877 0.22012402 0.028177168 0.246468
0.16683398 -0.09164776 -0.14991064 -0.07592298 -0.13728832 0.14802615 0.101936296 0.062287513
0.05579958 0.2199383 0.008976739 0.11851997 -0.071025826 0.017135222 -0.21045429 -0.2148397
-0.058761347 -0.1286829 -0.14331347 -0.15669422 0.043806866 -0.11277572 -0.03509718 0.06664208
-0.19432592 0.21699014 -0.010938268 0.06045601 -0.1698177 0.029041236 -0.041853823 0.19273923
-0.22275984 -0.08330356 -0.2137535 0.1500997 -0.20981143 0.08111102 -0.18602388 -0.23020177
-0.047957305 0.06147433 -0.09324572 -0.21550702 0.077671446 0.13822258 0.20627832 -0.18188693
-0.116436586 0.17277223 -0.15253434 0.052521292 0.17819843 0.094145305 0.18840706 -0.105807774
-0.089998156 0.12730725 -0.009003495 0.1814863 0.2039531 0.17854375 -0.091425575 0.17265469
0.12243532 0.19985217 -0.19488081 -0.20193978 0.15354712 0.1928994 0.052551493 -0.13461907
0.15262502 0.08792085 -0.18005311 0.1790484 0.19814543 -0.09176126 -0.15137304 -0.10875221
0.16544746 -0.19724974 0.20875624 -0.20709388 0.12865278 -0.17789207 -0.086867385 0.16585217
-0.12478259 -0.042961758 -0.06050094 -0.19110894 -0.08598053 -0.11143505 -0.12284923 0.10633839
0.009236109 -0.07765991 -0.122615136 0.13697185 0.16807279 0.07183494 0.090835564 0.09895879
0.0673366 0.045177292 -0.20329241 0.18176052 -0.17088327 -0.15941058 -0.18294765 -0.044639967
