models/transh_model/trained_model.pkl (torch, 606047 bytes, 3 tensors)

weight f4 [2943, 50]
000000 36 23 7d 3e bd d3 cd 3d 1e b9 c6 3b 04 8b 9f 3b
       0.24720463 0.100501515 0.006064548 0.004868867
000010 0b 21 40 3e a3 a4 19 be d4 b5 82 3e b9 f5 1b be
       0.18762605 -0.1500421 0.2552935 -0.15230455
000020 2b 05 4a 3d 0e 5d c8 3d a3 18 35 3e 6e 68 3a 3e
       0.049321335 0.09783374 0.1768518 0.182039
000030 70 0d 35 3e ac a8 f3 3c e9 f8 7f be f3 18 5f 3d
       0.17680907 0.029743515 -0.24997295 0.054467153
000040 bb c2 25 3d 0c a3 8f bc 6f 8e 2f 3e d3 58 41 bd
       0.040468913 -0.017533801 0.17144178 -0.04720385
000050 8a 26 16 3e 32 1f e2 bd b9 ac ac 3e 91 e4 c6 3c
       0.14663139 -0.11041106 0.33725527 0.02427891
000060 3a 10 42 3d 4d 40 15 be 6a 91 a0 bd 06 f4 b8 bd
       0.047378756 -0.1457531 -0.078402355 -0.09030919
000070 34 ec 03 be 97 3e b3 3d ca 02 94 3d 32 10 10 3e
       -0.12883073 0.087521724 0.072270945 0.14068678
000080 64 64 fb 3d be db b4 bd 09 6a 8f 3d 39 11 a8 bb
       0.12275007 -0.08830975 0.070026465 -0.005129006
000090 46 7f 24 3e 60 ee 88 3e 4f dc 34 bd 37 e3 c7 bd
       0.16064176 0.26744366 -0.044155415 -0.09760135
0000a0 f5 b1 74 3d 6a ff 62 3e f0 31 0f bd 90 61 97 bd
       0.059740026 0.22167745 -0.034959733 -0.073916554
0000b0 a5 96 03 3e e6 80 ea b9 66 be 7d be a5 7f 8c bd
       0.12850435 -0.00044727995 -0.24779662 -0.06860284
0000c0 49 d5 c3 bd e7 1f 68 be cd 0e 3b 3e a0 8b 9e 3d
       -0.09562165 -0.2266842 0.18267365 0.07741475
0000d0 36 d2 16 bc 9c 82 4a b9 d2 37 5d 3e 53 93 80 3d
       -0.009205392 -0.00019312877 0.21603325 0.062781
0000e0 70 39 31 3e 98 d8 34 bd ef fa dd bc 07 0c 1a 3b
       0.17307067 -0.044151872 -0.027097194 0.0023505704
0000f0 db a0 79 3d ef 1f 29 3d f3 4d 50 bd b1 c1 6b 3e
       0.06094442 0.04129022 -0.05085559 0.23023106
000100 91 4d db 3c 73 f9 fc 3a 52 b7 98 3d a9 96 69 be
       0.026770385 0.0019300416 0.074568406 -0.22811379
000110 4f 99 e6 bb 55 be 0f be 84 c4 86 bd 7a f3 10 be
       -0.007037319 -0.1403745 -0.06580451 -0.14155379
000120 b1 03 bb 3d 6a 22 c0 3c 2f 46 13 3e 1e 14 a9 bd
       0.091315635 0.02345391 0.14382242 -0.0825579
000130 7c c8 1b 3d 2e d2 94 3e 32 a5 6f bd a9 51 af bd
       0.038032994 0.29066604 -0.058507152 -0.08560497
000140 31 6f a4 3c 6f dc 43 3d 18 66 71 3e 05 45 8b 3e
       0.020072551 0.047817644 0.23574102 0.27201095
000150 9a 89 eb bd 43 8e fb bd 7b 94 80 be 17 99 e0 3d
       -0.11500855 -0.12282994 -0.25113282 0.109666996
000160 33 91 4f be 58 ce 11 bd d5 71 26 be a6 24 2d 3e
       -0.20270233 -0.035597175 -0.16254361 0.16908512
000170 a0 c9 47 bd 4e 9c b2 bd bf 79 d7 3d 26 5c af bd
       -0.04877627 -0.08721219 0.10521268 -0.08562498
000180 17 d9 62 be fc e0 7a be 18 c8 13 bd de bd 24 be
       -0.22153126 -0.24499887 -0.036079496 -0.16088054
000190 7c 43 40 3e 0f 64 03 be 05 c3 79 3e 5d fa 15 3d
       0.18775743 -0.12831138 0.243908 0.03661572
0001a0 85 9b 2c 3d 10 1e 7c 3e 18 a6 54 bd 93 27 d4 bc
       0.042140502 0.24620843 -0.05191621 -0.025897777
0001b0 e3 25 f1 3d f3 4d e2 bc 78 1f f6 bc 4a ab 5e 3e
       0.117748044 -0.02762506 -0.030044302 0.21745029
0001c0 02 02 ee 3d 91 38 7f 3e 68 3c f5 3d 7f f4 ba bc
       0.11621477 0.24923922 0.11974412 -0.022821663
0001d0 8f cc 35 bd 1e 06 04 3d 2e f8 53 3d 7d 35 60 3d
       -0.044384535 0.032232396 0.051750354 0.05473851
0001e0 12 71 69 bc aa 71 db bb 8e 1a 51 bd 86 f7 8b bd
       -0.0142481495 -0.0066968994 -0.051050715 -0.06834321
0001f0 86 c3 ad 3c 31 8f 95 bd 80 a5 a4 bd ac a5 b8 3d
       0.021211397 -0.07302702 -0.08039379 0.090159744
000200 00 8a b0 3d 93 86 2c bd 06 07 96 bc e2 19 1c 3e
       0.086200714 -0.042120527 -0.018313896 0.15244249
000210 5c 49 5d 3e 30 f3 35 be 11 e9 3d 3e 5c ac d2 bd
       0.21610016 -0.1776855 0.18545939 -0.10286781
000220 ee 42 34 3e 2c e5 6d 3e 46 f5 c4 bd 62 ab 9d bc
       0.17603657 0.23231953 -0.09617095 -0.01924676
000230 6a 60 65 be f8 20 39 3d 98 5b 18 be 7e 0e e0 bd
       -0.2240006 0.045197457 -0.1487869 -0.10940264
000240 f5 bd 7e 3d 1a 71 5f bb a9 79 c2 3d f5 fa b5 bd
       0.062192876 -0.0034094513 0.09495861 -0.08885757
000250 b7 42 ed 3c 01 c8 23 be 0c 30 ea bc 19 4b f5 bc
       0.028962476 -0.15994264 -0.028587364 -0.029943036
000260 bf c0 20 3e 9e bd 13 be 87 a2 93 bd 85 37 0c be
       0.15698527 -0.14427802 -0.07208734 -0.13693054
000270 37 07 ef 3c e9 5f 1a 3d db c7 e8 bd da a4 d8 3c
       0.029178245 0.037689123 -0.113662444 0.026445795
000280 a5 b4 2d be e0 a7 0d 3e f2 5b 7e be e4 b8 3b 3d
       -0.16963442 0.1383357 -0.24839762 0.045830622
000290 a1 76 84 bd b0 2e 90 3d 50 1a fe 3d fe bc 78 bd
       -0.06467939 0.07040155 0.124073625 -0.060727112
0002a0 07 b2 37 3d 2a 35 f5 bd 2e f2 7b 3d 0f 9c 60 be
       0.044847514 -0.11973031 0.061510257 -0.21934532
0002b0 58 0a 9e bb 69 8f a1 bc 7a c1 27 be be 14 9f 3d
       -0.0048230104 -0.019721704 -0.16382399 0.07767628
0002c0 81 ff 83 3d 50 55 76 3e 37 5a 6b bd 3a 25 3a be
       0.06445218 0.24055982 -0.057459082 -0.18178263
0002d0 6f 04 89 3e a1 75 66 3e fe fa 6a 3d 02 95 d8 3c
       0.26761195 0.2250581 0.05736827 0.02643824
0002e0 b4 09 e1 bd 51 81 6a be 0f b8 8a 3d 8e b0 84 3d
       -0.10988179 -0.22900893 0.06773388 0.06478988
0002f0 f7 c3 b4 bd 0d cc 40 3e f7 e7 08 be e6 08 fb 3c
       -0.0882644 0.18827839 -0.13369738 0.030643892
000300 38 ef 0c be 3c 99 77 be 42 4b 2a bd e3 a9 7c bc
       -0.1376313 -0.24179548 -0.041575678 -0.0154213635
000310 17 ca c5 bd ba db 13 3e a4 e2 6a be ad 54 31 bd
       -0.09657686 0.14439288 -0.22938019 -0.043293644
000320 c9 04 a6 3d 8a 6d 75 3d 8d 3e f0 3d b1 2d 17 3e
       0.081063814 0.059918918 0.117306806 0.14763524
000330 3b f1 df bb 9b dc 12 be 61 0c 67 3d 07 59 03 be
       -0.006834177 -0.14341967 0.05640829 -0.1282693
000340 a0 f3 0e 3c a2 6f 1c 3d f6 17 d5 3d d8 0f 6a 3d
       0.008725077 0.0381924 0.10404961 0.057144016
000350 b4 c1 a6 3e f6 de 98 3d f1 f7 72 3c 3b 82 0f be
       0.3256966 0.074644014 0.014829622 -0.14014523
000360 f3 35 03 3d 14 cd 68 3e f4 e2 98 3e 9c 7c 73 3e
       0.03203387 0.22734481 0.29860651 0.23778003
000370 29 86 a9 bd e9 01 fd bc 63 65 c1 3d 03 a1 03 3e
       -0.08277542 -0.0308847 0.09443166 0.1285439
000380 5b a6 39 3e 1f 03 74 be 70 d6 04 be f0 63 07 3d
       0.18129866 -0.23829316 -0.12972426 0.033054292
000390 70 fb 1c 3d b1 bc ba 3d f3 e3 23 bd 96 cf 46 be
       0.038325727 0.09118021 -0.04001231 -0.19415125
0003a0 12 47 27 3e 97 83 22 bd 34 fb c3 3b 2d 27 87 3b
       0.16335705 -0.039676275 0.0059808735 0.004124543
0003b0 b5 e8 4a 3d eb 22 05 3e 3f ea f6 3c 14 2c 3d bd
       0.049538333 0.13001601 0.030140994 -0.046184614
0003c0 93 be 04 bd c0 9f 47 3e 81 db f0 bc 9c dd 0b be
       -0.03240831 0.19494534 -0.029401543 -0.13658756
0003d0 41 52 cc bd 88 66 43 be 11 cc c2 bd 95 a0 ec 3d
       -0.09976626 -0.19082081 -0.09511579 0.11554066
0003e0 1c ee 0c be 06 1b 87 be 87 2f 4b be 67 82 1b be
       -0.13762707 -0.26387805 -0.19842349 -0.15186463
0003f0 92 8b c9 3d 3b 0e aa 3d 82 08 82 bb ac 0c 9a be
       0.09841074 0.083034955 -0.0039682994 -0.30087793

weight f4 [24, 50]
000000 6e 55 91 be 37 88 ad 3e c3 f0 94 be f3 f7 06 be
       -0.2838549 0.33892986 -0.29089937 -0.13180523
000010 77 dd 19 3f b4 60 a2 3e c1 f0 12 bf ce 2f ca be
       0.60103554 0.31714404 -0.5739861 -0.39489597
000020 08 d7 5e bf 37 30 d8 be da f9 01 bf fb 0b de be
       -0.8704686 -0.42224285 -0.5077187 -0.43368515
000030 da 38 02 bf 33 da d8 be e0 d1 4c 3f b5 0a 17 be
       -0.50868 -0.42353973 0.80007744 -0.14750178
000040 9e 74 fd bd 67 0e 86 3e a8 db 04 bf b5 90 3d 3f
       -0.123757586 0.26182863 -0.5189767 0.7404893
000050 8a d9 5e bd 3a ac 25 3f c9 10 8b be fc 21 08 3f
       -0.05440668 0.6471592 -0.27161244 0.53176856
000060 ae 0a 07 3f a6 a3 5a 3e c6 73 e7 bd 11 47 f7 bc
       0.5275067 0.2135149 -0.11301379 -0.030185254
000070 0e 00 ab be 2f 8f de 3e 6c e6 7f 3e f5 6d 01 3f
       -0.3339848 0.43468615 0.24990243 0.50558406
000080 cc 5e f6 bd aa 20 34 3f e2 36 14 3f 71 e8 e1 3d
       -0.120298 0.7036234 0.57896245 0.11030663
000090 86 87 cd 3e 16 cc 19 bf 60 a3 be 3d ff 87 d1 3d
       0.4014246 -0.60077035 0.09308505 0.10231017
0000a0 43 0f 47 3f 3a 3b b4 be 31 af 3b 3f 29 0f 4d 3f
       0.7775766 -0.35201436 0.73314196 0.8010126
0000b0 ff ea 59 be 38 fd 57 bf 95 9b 31 3e 73 fb 21 3e
       -0.2128105 -0.84370756 0.17344506 0.15818577
0000c0 66 d7 5b bf ff 38 eb 3e ea 65 15 3e 99 5a 5a 3e
       -0.85875547 0.45941922 0.14589658 0.21323623
0000d0 1a b0 ed be 7e 2a 93 3e d6 cb d5 3e 78 ad a3 3e
       -0.46423417 0.28743356 0.41757077 0.31968284
0000e0 db 33 d4 bd ab 66 da be ad 9a f4 be 46 db 07 bf
       -0.10361453 -0.42656454 -0.47774258 -0.5306896
0000f0 5a 0c 56 bd 46 61 fb be 38 a1 ce be b7 20 62 bf
       -0.052257873 -0.4909765 -0.40357375 -0.8833117
000100 82 54 ae 3e 08 46 0f bf ac 5b 0a 3f d3 cf 2b bf
       0.3404885 -0.55966234 0.5404613 -0.6711399
000110 11 8f 54 3e 26 e0 16 3f 3e 6d 13 bf 55 e4 13 3f
       0.207577 0.58935773 -0.57588565 0.5777028
000120 47 7d 88 be 86 c5 6a 3f d4 fe 37 3f 14 ce f1 3e
       -0.2665808 0.91707647 0.7187321 0.47227538
000130 b7 dd 0d bf bc 40 eb be 36 7e a0 be e6 d0 3a bf
       -0.55416435 -0.45947826 -0.3134629 -0.72975004
000140 da 4b b7 be 98 ca c5 3e f7 21 d1 be 6a c8 35 3e
       -0.35800058 0.3863113 -0.40846226 0.17752233
000150 36 d3 f1 bb 62 e6 b8 3e 24 a6 f5 3e 0b 92 d3 be
       -0.0073799146 0.36113268 0.47978318 -0.4132236
000160 e5 73 3a 3e dd 91 2f 3f 03 90 0d 3f f8 3a 97 be
       0.18208273 0.68581945 0.5529787 -0.29537177
000170 20 36 f0 be a3 48 bc 3e 62 2d 07 bf 9f 0a ae be
       -0.46916294 0.36774167 -0.52803624 -0.33992478
000180 79 c1 6b be e2 bb 01 3f 46 2e c7 3e e5 a5 9c 3e
       -0.23023023 0.5067731 0.3890249 0.30595317
000190 9c 35 c9 3c 57 48 f5 bc 01 eb c2 bc ce fa 18 3e
       0.024561696 -0.02994172 -0.0237937 0.14939424
0001a0 0a f1 51 bd 68 47 1d bd e3 05 18 bd d1 e3 e1 3d
       -0.051255263 -0.038398176 -0.03711499 0.11029781
0001b0 55 16 fd bd 3b f7 76 be 7f 3b ac 3c 9a 60 ab 3d
       -0.12357775 -0.24117748 0.021024464 0.08368035
0001c0 59 b1 98 be 86 83 b9 bc 66 9c 2c be ce 67 14 bd
       -0.29822806 -0.022645723 -0.16856536 -0.03623181
0001d0 29 c7 3c bd 86 ee 8a bd 9d 6c 9b bd 86 c2 a9 3c
       -0.04608837 -0.06783776 -0.07589076 0.020722639
0001e0 cb 87 55 3e 4e 26 bd be 98 6a b1 bd b9 50 b8 bc
       0.20852582 -0.36943287 -0.08662909 -0.022499429
0001f0 0e 2a 1c be 22 34 f2 bc b2 7c 80 bd b3 da 34 3d
       -0.15250418 -0.029565874 -0.06273784 0.04415388
000200 3b 03 bc 3d b3 ed a3 3e 9d 56 84 be ca 70 2c 3d
       0.09180304 0.32017288 -0.2584733 0.04209975
000210 ca 14 9d 3d 64 6e 42 be 20 5f 53 be 19 5e 69 be
       0.07669981 -0.18987423 -0.20641756 -0.22789802
000220 53 17 a1 bd 35 37 c6 3d b5 b8 84 3c b8 60 df bd
       -0.07865777 0.09678499 0.016201356 -0.109071195
000230 8c 0c 15 bd f0 9f 19 3e bb 6d e7 b6 c5 90 6f 3d
       -0.03638892 0.15002418 -6.897111e-06 0.058487672
000240 42 79 5c 3d 46 0c 00 3e 6d 27 4c bd 75 16 f7 3d
       0.053826578 0.12504682 -0.049842287 0.1206483
000250 1e fc 96 3e de be 51 be 2c d4 9a bc 5e 0c bd 3c
       0.29489225 -0.20482966 -0.0189 0.023077186
000260 6e d0 94 3c 9f 52 11 be f6 b9 5b 3d 31 c0 13 3d
       0.018165793 -0.14191674 0.053644143 0.03607196
000270 1a 78 48 3d 2a ec e6 bd 9e eb fa 3d 78 b2 7b 3e
       0.048942663 -0.112755135 0.12251972 0.24579799
000280 08 41 9a bc cf ae b2 bd 70 cc 97 3e c8 b7 bc 3c
       -0.018829837 -0.08724748 0.2964816 0.023036852
000290 67 92 28 3e 05 b6 f7 3c 46 fe 4f 3d cd bc 89 3d
       0.16462098 0.03023816 0.050779603 0.06725464
0002a0 02 3f 9c 3d 52 eb c6 bc 61 ec 5b be 10 2a bd 3e
       0.07629205 -0.024282131 -0.2147689 0.36946154
0002b0 4a b3 a6 3d da a1 8b 3c c3 4a 20 3e 87 f2 01 3d
       0.081396654 0.01704495 0.1565352 0.031725433
0002c0 0c bd 6c 3d 61 fe 14 bd 17 0c b4 bd c7 9e a2 be
       0.057797477 -0.036375407 -0.087913685 -0.31761762
0002d0 b9 71 84 3e c6 55 47 bd 8b 5e 9f bd 68 39 47 3e
       0.25868014 -0.048665784 -0.077817045 0.19455492
0002e0 ed d7 4f 3e 58 91 66 3e 97 91 ba 3d 4c bd bb bd
       0.20297213 0.22516382 0.091098 -0.09166965
0002f0 4e 55 9c bc f4 da e1 3d e4 a4 29 3d f1 87 18 be
       -0.019083645 0.1102809 0.041417018 -0.14895608
000300 22 5c 0e bb f7 27 60 bd 4d e8 54 bd cf 81 07 be
       -0.0021722396 -0.054725613 -0.05197935 -0.13233112
000310 d8 8d 3d 3d c1 1f e2 bd 11 e3 99 be dc aa 4f 3e
       0.04627785 -0.11041213 -0.3005605 0.20280021
000320 5b 79 ad 3b 5a a1 28 3e 49 26 99 3d c1 27 4e 3e
       0.0052940077 0.164678 0.074780054 0.20132352
000330 3c 6c 79 3e 11 df 45 3e 73 fd 11 3b 04 7e 95 bd
       0.24357694 0.19323374 0.0022276312 -0.07299426
000340 77 cf 44 3e 13 46 85 bd ab 18 b4 3c b1 ba 8f bd
       0.19219767 -0.06507506 0.021984419 -0.070180304
000350 47 3d 19 3e f0 aa 1c be fa ae 4c 3e 41 94 e0 bd
       0.14964782 -0.15299582 0.19988623 -0.10965777
000360 35 68 e3 3d 90 1c c7 3d f2 42 5b bd e3 ac 45 3e
       0.1110386 0.09722245 -0.05353064 0.19304232
000370 3d fd 60 3e 64 ad 65 3c 96 60 56 3e a5 a3 0c 3e
       0.21971603 0.01401839 0.20935282 0.137343
000380 2a 7e 81 3d 0d 69 00 be 61 76 81 be 83 f8 b0 bd
       0.06322892 -0.12540074 -0.25285628 -0.0864115
000390 9a 77 ee bd 85 14 ba bc 4c 1b d7 bd 95 e0 9c 3e
       -0.11643906 -0.022714863 -0.10503253 0.30640092
0003a0 cd ad 38 be eb 5e b4 bd 7e 55 32 bd df 3d e8 bd
       -0.1803505 -0.08807167 -0.043538563 -0.11339926
0003b0 d5 f7 c4 3d bf 4d d6 bd 87 16 66 3d 2a ee b5 3e
       0.09617583 -0.10464048 0.056173827 0.35533267
0003c0 26 56 01 3e 68 53 a0 bd fa f9 c7 bd 7f fb 7d bc
       0.1263052 -0.078284085 -0.09764476 -0.015501856
0003d0 f4 0f 73 bc ee 34 f5 3d 0c 69 47 3e 4b 5c a5 3d
       -0.0148353465 0.11972986 0.19473666 0.08074244
0003e0 b2 0d 7c 3d 45 27 16 3d 3c df 4b 3d 43 ee c1 bd
       0.0615365 0.036658544 0.04977344 -0.09469273
0003f0 8b 9f e1 bd 18 a5 80 be 59 27 6e be 24 28 1c be
       -0.110167585 -0.25125957 -0.23257197 -0.15249687

weight f4 [24, 50]
000000 07 83 05 be 96 37 b1 bc cc 4f 5a 3e 67 f9 1a be
       -0.13038264 -0.02163295 0.21319503 -0.15134202
000010 a9 da 60 be 26 ab 04 be 6b 61 2b be e4 8d c0 bd
       -0.21958412 -0.12955913 -0.16736381 -0.094020635
000020 02 90 de bc d0 bc 67 3d 85 16 ec 3d 58 c6 1e bd
       -0.027168278 0.05657655 0.11527733 -0.038763374
000030 94 be a7 bc e3 6c aa bd 0e 01 cb 3d a0 ca 13 3e
       -0.020476617 -0.0832155 0.099123105 0.14432764
000040 2b 66 e7 bd a6 d8 a6 3d 14 89 1f 3d 12 1c b2 bd
       -0.11298784 0.08146791 0.038949087 -0.0869676
000050 1b 53 97 3c 07 f8 28 bd a7 e3 7d be 8c a1 71 3c
       0.018472245 -0.041252162 -0.24793874 0.014747988
000060 70 1e 51 be 63 fc b7 3d 0b 34 60 bb 1d 8d 0a 3e
       -0.20421767 0.08983686 -0.0034210708 0.13530393
000070 92 de ea bd ea 85 70 be f1 cc 71 3e 26 f4 00 3e
       -0.11468233 -0.23488584 0.23613335 0.12593135
000080 90 ce 03 be 3e f0 99 bc 6f 80 73 be 9b c7 c7 3b
       -0.12871766 -0.018791314 -0.23779462 0.006096793
000090 79 0f 76 3e 8a 00 b2 bd 96 bb f4 3d 17 5c 6a 3e
       0.2402934 -0.08691509 0.11949842 0.22886692
0000a0 f3 9e 8e bd fb c8 95 bd 35 5d c4 bd 67 a3 fe bd
       -0.06963911 -0.073137246 -0.0958809 -0.1243351
0000b0 68 3f 50 3b 17 9e b9 3d 57 38 60 3e 48 22 8f 3e
       0.0031776074 0.09063356 0.21896492 0.27955842
0000c0 e2 d0 ff bc 20 92 90 3e d2 5f 2a 3e b0 91 fa 3c
       -0.031227533 0.28236485 0.16638115 0.030587047
0000d0 7f 13 10 be b3 e7 f4 3d e4 a1 46 3e 19 67 17 3e
       -0.14069937 0.119582556 0.19397694 0.14785422
0000e0 37 66 78 3e 9a ba 30 3d f0 ae fc 3c 57 df b4 3c
       0.24257742 0.043146707 0.030845135 0.022079153
0000f0 23 76 62 be bb 97 56 3b 11 18 65 3d c4 21 e5 3d
       -0.22115378 0.0032744247 0.055931155 0.11188081
000100 7c 24 68 be 43 04 9d bd 63 6d aa 3d ba 81 78 bd
       -0.22670168 -0.076668285 0.08321645 -0.060670592
000110 98 9a 02 be a0 a1 46 bc 81 bf 11 bb 87 54 d9 bc
       -0.12754285 -0.012123495 -0.002223939 -0.026529564
000120 f5 45 1c 3e d4 3e 30 bd 9c 87 41 3e a6 61 8e bd
       0.15261061 -0.043028668 0.18899387 -0.06952219
000130 b2 31 71 3d d8 64 83 be dd d3 ad 3b 92 12 5c bb
       0.058885284 -0.25662875 0.005304797 -0.0033580405
000140 27 67 00 be 12 d4 96 3d aa 7c 7a 3d 5c 5a 5c 3c
       -0.1253935 0.07364668 0.061154045 0.013449278
000150 4a e3 d3 3e 5c a7 17 bd 62 c3 4a be 76 8e 29 3e
       0.41384345 -0.03702484 -0.19801095 0.16558251
000160 18 8e 39 3e 18 61 29 be df 43 71 3e 25 2f d4 3d
       0.1812061 -0.16540945 0.23561047 0.103605546
000170 8b fb d8 3d 5d fc f1 3d 94 9d 7e bb d3 da 9c bd
       0.10594853 0.118157126 -0.0038851248 -0.07658925
000180 bc b5 7e be 22 0c 5d be fa e2 b2 3b dc e5 d6 bc
       -0.24874014 -0.2158666 0.0054591866 -0.026232652
000190 3f 2f 82 3c da 65 2d be d4 2c 34 3e 54 53 26 be
       0.01589167 -0.16933385 0.17595226 -0.16242725
0001a0 1e 21 2d 3d 78 7a 02 be 26 42 37 3e 5e 0c a7 3d
       0.04226791 -0.1274203 0.17896327 0.08156656
0001b0 35 f5 20 3e 8a 2b 29 3e f6 bf ab 3d 63 cf 45 3e
       0.15718539 0.16520515 0.08386223 0.19317393
0001c0 6a 9d 09 3e 87 c2 5b 3e f9 3d 15 be f4 63 df 3d
       0.13438955 0.21460925 -0.14574422 0.109077364
0001d0 fb 89 14 3e c5 5f 8a bd c3 66 19 3d 7f 32 2d be
       0.1450576 -0.06756548 0.037451517 -0.16913794
0001e0 f3 5f b8 3d 4c 90 1b be 8a 3e 1f 3e 05 b8 0d be
       0.09002676 -0.15191764 0.155512 -0.13839729
0001f0 63 2c 8c bd 8c 7d df bd ed 5d b3 3d 48 87 51 3e
       -0.068444036 -0.10912618 0.08758149 0.20461762
000200 8a 20 1f 3e 63 7b 3b be 89 45 5a 3e a0 d1 9b bd
       0.15539756 -0.18308787 0.21315588 -0.07608342
000210 6e c9 3f 3e 63 89 cf bc 93 74 d9 3c 11 96 2b be
       0.18729183 -0.025334066 0.026544845 -0.16756465
000220 f3 71 bd bc 0f bd 1a 3e da e5 cf bc 51 5b 0b be
       -0.023125624 0.15111183 -0.025378156 -0.13609053
000230 d8 13 37 be ba 01 20 3e f4 48 50 be 9c b1 23 be
       -0.17878664 0.15625659 -0.2034033 -0.15985721
000240 a4 d4 0b 3e e6 4b f0 3d c0 19 19 be bb 51 80 bd
       0.13655335 0.117332265 -0.14951229 -0.06265589
000250 ec 65 38 be c7 6a 44 be da d7 55 bc 87 18 29 3e
       -0.1800763 -0.19181357 -0.013051951 0.16513263
000260 4a b7 36 be 63 81 20 3e de 1f 26 bd e3 44 00 3e
       -0.17843357 0.15674357 -0.040557735 0.12526278
000270 88 44 37 be 02 76 a3 bd 45 4e 23 be 4f 55 29 be
       -0.17897236 -0.079814926 -0.15947826 -0.16536449
000280 2d f6 a6 bd d3 20 46 be 36 a1 0a be bd b2 5c be
       -0.08152423 -0.19348459 -0.1353806 -0.21552558
000290 08 22 18 3e f6 1c df bd a2 16 16 be 08 bb 97 3d
       0.14856732 -0.10894196 -0.14657071 0.0740872
0002a0 9f a3 07 bd 9a 06 2c 3e 20 2e b9 bd d3 45 1b 3e
       -0.033115026 0.16799393 -0.09042001 0.15163355
0002b0 dc b9 1c be 2b 58 08 3e a9 cd 88 3d 0d 32 e0 3d
       -0.15305275 0.13314883 0.066798516 0.109470464
0002c0 6d 6c a8 bd 26 1f 4f be f0 b0 20 be 5c a7 39 3e
       -0.082238056 -0.20226726 -0.15692496 0.18130249
0002d0 15 47 57 be 65 34 9c 3d 32 6d 40 be 43 c7 db 3c
       -0.2102321 0.07627181 -0.18791655 0.026828414
0002e0 6a 5e e2 bc 8b 4f 2c 3e 44 b4 a5 3c 19 36 1b be
       -0.02763291 0.16827218 0.020227559 -0.15157355
0002f0 71 5e c8 3c fb 52 0e 3e 36 f6 36 3e 59 94 23 be
       0.024459096 0.13898842 0.1786736 -0.15974559
000300 62 74 53 3e 59 21 23 3e 68 4d 0b be 2a 70 ef bd
       0.20649865 0.1593069 -0.13603747 -0.116913155
000310 4e 01 1d 3e 03 4c 86 3d c7 98 3a 3e ad 5e 46 3e
       0.15332529 0.06557467 0.18222342 0.19372053
000320 59 df 8f 3c 13 08 f1 bd f1 f4 49 3e 53 19 3d bd
       0.017562555 -0.11769118 0.19722344 -0.04616673
000330 ef 69 dd 3d 27 aa 99 bd 33 6c 32 3e 66 48 b7 3d
       0.10811221 -0.07503157 0.17424087 0.08949356
000340 77 46 3b 3e 01 be 94 3d 45 80 db 3d e4 36 4a 3e
       0.18288599 0.07262803 0.10717825 0.19747502
000350 88 2f a7 3d b9 ed 1e 3e e4 76 03 be fe 3d 6c 3d
       0.08163363 0.15520371 -0.12838322 0.057676308
000360 85 37 3c 3e 05 6c 6c bd 48 cc 1b bc 41 32 be bd
       0.18380554 -0.057720203 -0.009509154 -0.09286929
000370 ee 48 6f 3e 79 36 83 be ed 22 54 3e 59 20 c6 bd
       0.23367664 -0.25627497 0.20716448 -0.096741386
000380 52 bf b1 bd d3 7d 20 be 9a 57 8c bc 80 8a 41 3e
       -0.086790696 -0.15672998 -0.017131615 0.1890049
000390 8a 49 08 3e 38 b1 c9 bd 9f b4 ca 3d ad 11 42 3d
       0.13309303 -0.09848255 0.09897732 0.04738014
0003a0 2b fd 1d 3e 34 d3 ef bd 1f 0a 5a bd 9d 8b 92 be
       0.15428607 -0.11710206 -0.05323231 -0.2862214
0003b0 40 11 90 bc 12 f8 0e 3e 48 85 c8 bb c3 82 37 bd
       -0.01758635 0.13961819 -0.006119404 -0.04480244
0003c0 78 e5 1b be 72 33 39 3e 40 7d 77 be d9 d6 1d be
       -0.15224254 0.18086031 -0.24168873 -0.15413989
0003d0 3e 22 15 3e cd 93 4e 3e 04 ea d4 bd 0a 46 6d 3c
       0.14563844 0.20173569 -0.103961974 0.014482031
0003e0 fb 6c 99 bd db 2f 80 be 9f a3 8a bb f4 3a 0e 3e
       -0.074914895 -0.2503651 -0.004230931 0.13889676
0003f0 73 76 5c be 22 b4 ea 3c b2 db ce bd 4a 95 c5 3d
       -0.2152956 0.028650347 -0.10100497 0.09647615
